VAE_LSTM.pt (torch, 32502 bytes, 39 tensors)

weight_ih_l0 f4 [40, 1]
000000 00 f4 5a 3a af 0d 98 3d 63 cf f6 3d 46 5d b0 bd
       0.0008352399 0.07424485 0.120512746 -0.086115405
000010 39 88 77 be 5d e0 d7 bd fc 8c 07 3e 7d 3a da 3d
       -0.24173059 -0.10540841 0.13237375 0.10655687
000020 63 71 93 3d 52 81 c1 bd 8a ba f1 bd 1e aa b8 bc
       0.07199361 -0.09448494 -0.11803158 -0.022542056
000030 26 ff e4 bd c9 7c 8f 3b 24 5f 86 3e 11 77 78 bd
       -0.11181478 0.004378889 0.26244462 -0.060660426
000040 11 a4 06 3e 89 29 bd be e4 9a 7b be c1 50 9b 3c
       0.13148524 -0.3694575 -0.24570805 0.018959405
000050 29 ad 19 bd 68 7f 0a 3c 5c 8f ea bc 93 a1 55 3c
       -0.037518654 0.008453228 -0.028632812 0.013039011
000060 21 3d d7 bc 39 c7 e0 3c 21 3c 18 3d bb 3d 5c bd
       -0.026274266 0.027438747 0.03716672 -0.05376981
000070 c6 6f 66 bd e9 f6 01 bc 68 c3 5c bb 2a d1 2f bd
       -0.05625894 -0.007932403 -0.0033685807 -0.042924084
000080 e0 e8 f7 bb 3b 0f ae bd 47 3b 84 3c e7 a2 77 3d
       -0.0075656027 -0.08498999 0.016141547 0.06045809
000090 73 95 5d be e6 cf 36 3d 33 b6 48 3b fc 82 fe bc
       -0.21639042 0.04463186 0.0030626177 -0.031068318

weight_hh_l0 f4 [40, 10]
000000 f4 45 61 be 08 04 f2 bd ef 44 aa 3c 33 4f cc 3d
       -0.21999341 -0.11817175 0.020784823 0.099760436
000010 3d 30 02 bd f3 d2 3a bd 28 89 04 3d e6 90 9c be
       -0.031784285 -0.045611333 0.032357365 -0.305793
000020 75 4f 70 be a1 73 18 be 4c 0a 71 3c 19 e6 2c 3d
       -0.2346781 -0.14887859 0.014711928 0.042211626
000030 ed fc 2a b9 27 ef dc 3d 0a f3 ad 3d dd d4 fd bd
       -0.00016306686 0.10787802 0.08493622 -0.12394116
000040 47 3e ab be 56 22 9c 3d 4c cb 19 3e d8 e3 3d be
       -0.3344595 0.076237366 0.15018958 -0.18543947
000050 08 f6 c2 3d 1f c1 3b bd 97 f3 ae be 2c 0a 80 bd
       0.09519583 -0.04583847 -0.3417022 -0.0625194
000060 57 cc 0b be 65 98 45 3c 83 b7 13 3e f7 53 3f be
       -0.13652168 0.0120602595 0.14425473 -0.18684374
000070 bf f2 0f 3e d9 d3 1f bd a3 12 b8 3e 5d 03 20 3e
       0.14057444 -0.039020393 0.3595172 0.15626283
000080 6c a8 41 3c bc 70 19 be c4 2b 10 3e b2 e4 b8 be
       0.01181994 -0.14984411 0.14079195 -0.3611198
000090 f5 96 91 be df fd 95 bd c5 d8 80 3e 8a 00 e5 bd
       -0.28435484 -0.07323813 0.25165382 -0.111817434
0000a0 a0 19 68 be 7b a9 11 be a9 ca 35 3e df 61 2f be
       -0.22666025 -0.14224808 0.1775309 -0.17127179
0000b0 a9 86 41 be a5 0c 67 3d 3c 7c b8 3e 4e dd c1 3c
       -0.18899025 0.056408543 0.36032283 0.023665097
0000c0 27 b4 19 be 4d 73 a7 3e 14 ec 83 3e 39 71 0b bd
       -0.15010129 0.32705155 0.2576605 -0.034043524
0000d0 d1 c6 db 3d db 6d 12 be 66 8c 3e 3e c6 28 43 3e
       0.107312806 -0.14299719 0.18608245 0.19058523
0000e0 26 2b 81 3b f7 34 12 bc b5 42 82 be e5 0e 73 3e
       0.0039419113 -0.008923761 -0.25441518 0.2373615
0000f0 d3 0a 90 3e a0 ef a0 be 21 9e 4f be 6e a6 16 be
       0.28133258 -0.3143282 -0.20275165 -0.14711925
000100 7a e7 b3 bd 7b 8a 73 b9 96 bd 97 bc 61 d3 bd 3b
       -0.08784385 -0.00023225874 -0.018523019 0.0057930206
000110 c8 64 2c 3e 88 e4 c7 bd d3 d8 43 bd b8 dc 40 be
       0.1683532 -0.09760386 -0.0478142 -0.18834198
000120 ea 97 c8 3d b4 e1 a7 bd d9 8f 47 3e 8e 06 a8 3e
       0.097946 -0.08197346 0.19488467 0.328175
000130 81 d2 04 3e 16 a2 94 be 61 82 22 be 0f 5f b8 3d
       0.12970926 -0.29029912 -0.15870048 0.09002506
000140 7e 2e 8d bb df cb 43 3e 00 38 4c 3e 54 e7 af 3e
       -0.004308521 0.1912074 0.19943237 0.34356177
000150 2c 44 88 3e 6c ee 13 3e ce bc 4f 3e 8b 10 84 be
       0.2661451 0.1444642 0.20286867 -0.2579387
000160 79 bd a3 bd 5a 5e 5a 3e 4d f4 46 be 8a 45 e3 3d
       -0.079951234 0.21325055 -0.19429131 0.11097248
000170 18 2c 7f 3e 60 fb a8 3e 9d 5c fb 3d 0e 9a 48 3e
       0.24919164 0.33004284 0.12273524 0.19590017
000180 01 84 bc 3d cc 4f d7 3d 4e bd 38 3e 8a 95 96 3d
       0.09204865 0.10513267 0.18040964 0.07352741
000190 9a 0c 3d 3e 6b ef 41 be e5 9c 1e be 32 06 2d be
       0.18461838 -0.18938987 -0.15489538 -0.16896895
0001a0 03 67 a9 3e 19 b9 13 3e 36 aa 5e bb 35 da 58 be
       0.33086404 0.14426078 -0.0033975965 -0.2117699
0001b0 32 55 71 be 2f 6b 9e 3e 5c 40 42 be ec 3a 14 3e
       -0.23567656 0.3094115 -0.18969864 0.14475602
0001c0 3b 6b a0 3d 53 0b a3 be 79 0b 65 be bd af 6c 3e
       0.078329526 -0.31844577 -0.22367658 0.23113914
0001d0 74 18 11 be 52 7b 07 3e aa 0e 8b be a5 54 0a 3e
       -0.14169484 0.13230637 -0.27159625 0.13508852
0001e0 bb f1 e1 3d cd bf 7e 3e 20 3f b9 be c3 5c 5e 3e
       0.110324346 0.24877854 -0.36180973 0.21715073
0001f0 9b 37 0b 3e b1 cb 16 3e b5 63 2b be 6a 3e 86 3e
       0.1359543 0.1472614 -0.16737254 0.26219493
000200 9f 46 29 3e 66 84 52 be 30 6a 3e 3c ca b6 aa be
       0.16530846 -0.20558318 0.011621997 -0.33342582
000210 b7 9d d7 3b 4b 4c 72 bd 04 c6 a5 be 25 40 18 be
       0.0065800804 -0.05915479 -0.32377636 -0.14868219
000220 dc c1 6e be 33 03 c5 3d 5b ae 78 3e 8b 3f e3 3b
       -0.23316139 0.09619751 0.24285261 0.006935065
000230 8a 7d c5 be d3 14 05 be 24 87 4a 3e 43 0b 29 be
       -0.3857234 -0.12996225 0.19778115 -0.16508202
000240 68 19 c3 3d 3a 9a bb 3e cc cb 88 3e 2c 65 94 be
       0.0952633 0.36641103 0.26717985 -0.28983438
000250 47 7a 98 bd 47 b4 70 be cb 68 8e bd 46 fe aa 3b
       -0.074451976 -0.2350627 -0.069535814 0.0052183
000260 e3 91 3c 3e 7a cc 8b be 97 5f af bc 89 8a 9a be
       0.18415026 -0.2730444 -0.021407885 -0.3018382
000270 43 41 3a be f9 52 0e be a5 94 e7 3d 45 f4 d9 bd
       -0.18188958 -0.13898839 0.113076486 -0.10642294
000280 d3 a4 60 3d f6 dd 90 be db e7 b2 3d d5 42 69 bd
       0.05484469 -0.28294343 0.08735629 -0.0569485
000290 e6 bc a5 be e9 19 7b be 5c ab 78 be 40 8d b5 3d
       -0.3237068 -0.24521603 -0.24284118 0.08864832
0002a0 59 5d 28 be 48 e7 22 bd 59 3b 4d bd dc 72 b0 bd
       -0.1644186 -0.03977135 -0.050105426 -0.08615658
0002b0 00 6f 88 3d 63 a9 44 3e 5d 22 bc bd 62 51 a3 3d
       0.066617966 0.19205241 -0.09186242 0.07974507
0002c0 f4 95 53 be b8 c1 39 be 07 22 6e 3e ad c7 9c be
       -0.20662671 -0.18140304 0.23255168 -0.3062109
0002d0 94 a8 09 3c bd 98 48 3e 50 3e 9c 3e 4a 11 ef 3d
       0.008402009 0.19589515 0.3051629 0.116732195
0002e0 1d 74 90 bd 92 67 cd bd cb 01 5a bd a3 a5 27 be
       -0.07053397 -0.1002952 -0.053224366 -0.16371779
0002f0 63 e0 5b 3d 0e d0 52 3e 94 3c e2 3d 4b e8 73 3c
       0.05368079 0.20587179 0.110467106 0.014886926
000300 9f 53 87 3e 7b e2 ff bc 91 92 0f be 9e 33 4a be
       0.26430985 -0.031235924 -0.14020754 -0.19746253
000310 19 c5 a6 bd 46 e3 1e 3e b2 8e a0 be 1e 10 af 3e
       -0.08143062 0.15516385 -0.31358868 0.34191984
000320 b5 87 2f 3c 42 e7 59 bd 1e bf 4c 3e cc f1 61 be
       0.010713507 -0.05319906 0.1999478 -0.22064894
000330 b1 5e 93 3d 44 64 1b be 54 35 46 3e a6 b2 71 bd
       0.07195795 -0.15174967 0.1935628 -0.059008263
000340 ef a0 ad bd c2 aa c3 be bd 42 a8 3d fd f1 55 3e
       -0.08477961 -0.38216215 0.08215854 0.20893092
000350 d6 07 28 3e 08 62 fb 3c 58 2e 65 be 9b b7 31 3e
       0.16409239 0.030686393 -0.2238096 0.17355196
000360 1e fd 5a be 38 6b a8 3e 00 58 bd 3e a2 63 64 be
       -0.21385619 0.328943 0.369812 -0.22303632
000370 67 ea 64 bd 2d 91 6a be fc 51 59 bd be fb 1b 3e
       -0.055887606 -0.22906943 -0.053056702 0.15232751
000380 75 62 90 be 85 3c b3 bd 79 c7 a3 3d db 27 c7 3d
       -0.28200117 -0.087517776 0.07997031 0.09724399
000390 ed 01 c7 3d c8 53 b4 3d b8 be 81 3e d3 9a 38 3e
       0.09717164 0.088050425 0.2534082 0.18027811
0003a0 33 f7 01 3e 8f eb 87 be fc 34 b3 be 7b ca 71 be
       0.12691955 -0.26546904 -0.3500136 -0.23612396
0003b0 fa 1e 24 3e 0b ac 65 be 97 60 47 be 08 0c fc 3d
       0.16027442 -0.2242891 -0.1947044 0.12306982
0003c0 39 95 c2 be 33 96 87 be c3 b2 8c 3e 57 50 9d 3e
       -0.38004473 -0.2648178 0.27480134 0.30725357
0003d0 51 63 92 3e e7 d5 22 3c af 90 fb bb 82 47 2d be
       0.28591397 0.009938694 -0.0076771597 -0.1692181
0003e0 4b 86 a4 3b 22 36 a8 3d 02 dd 6b be a5 f4 93 3e
       0.005020892 0.0821345 -0.23033527 0.28897586
0003f0 fc 77 93 be 03 8f 0f be 61 86 73 3e 02 29 39 3e
       -0.28802478 -0.14019398 0.2378173 0.1808205

bias_ih_l0 f4 [40]
000000 2e 40 04 be e6 7d a6 be 49 43 41 be a5 1e 84 3e
       -0.12915108 -0.32517928 -0.18873324 0.2580463
000010 11 8c 69 3e 8e b8 a7 bd 67 5e 1f be 92 8a 35 be
       0.22807337 -0.08189498 -0.15563355 -0.17728642
000020 4f c2 b1 3e 7c 2b e7 bd 48 6e 8f bd bb 56 8f 3e
       0.34718558 -0.11287591 -0.07003456 0.27995858
000030 12 14 a4 be 5b 6a 59 be b9 e2 0e bd 34 95 8b be
       -0.32046562 -0.21231978 -0.03488419 -0.2726227
000040 c7 cb 42 3e 21 c1 6d 3e 30 4e cc bc 9d 9b d5 bd
       0.19023047 0.23218204 -0.024939626 -0.104300715
000050 b1 56 5d 3d 84 b9 65 3d 6a 0f 27 3e 38 f2 f9 3d
       0.054037753 0.056085125 0.16314474 0.12204403
000060 f1 75 69 3e 90 99 90 3e 85 2c 81 3e 36 02 b4 3d
       0.22798897 0.2824216 0.25229278 0.08789484
000070 64 e1 c2 be 8f e2 5e bd 84 b7 38 3d 8f 4d a2 be
       -0.38062584 -0.05441528 0.04509689 -0.31699798
000080 f2 79 f4 3d 21 24 0c 3d dc 38 0d be ac 1d 8c 3e
       0.11937322 0.034214143 -0.13791221 0.27366388
000090 50 b6 bb bc 15 e4 d6 bd 8e 00 a1 3e 2b 9d 8f 3e
       -0.022914082 -0.10492722 0.31445736 0.28049597

bias_hh_l0 f4 [40]
000000 39 48 68 3e 69 5c 37 be be 2b bf 3d 28 83 8e be
       0.22683801 -0.17906345 0.09334515 -0.2783444
000010 88 f9 e3 3d e2 a5 1a be 1b 0b 73 3d cb 10 61 3d
       0.11131579 -0.15102342 0.059336763 0.054947656
000020 52 43 bd 3e 78 0c 26 3e af fc 33 be 5c 48 71 3e
       0.36965424 0.16215694 -0.1757686 0.23562759
000030 48 cc b3 be 60 ce 5f 3c c8 70 09 bd 5a ec 7f bd
       -0.35116792 0.0136600435 -0.033554822 -0.06248126
000040 6e ef 66 be 03 83 9e be 89 34 a8 3d bf 50 04 be
       -0.22552273 -0.3095933 0.08213145 -0.12921427
000050 e5 55 b8 be bc f9 52 3c 5c f6 5b 3e 0a 01 2e 3e
       -0.36003032 0.012876924 0.21480697 0.16992584
000060 98 16 80 3c 83 fa 7a 3e f2 f8 a5 bd cc 8a 3b be
       0.015635774 0.24509625 -0.08104123 -0.18314666
000070 4a 46 cc 3d b2 58 9d 3e aa 6e 99 3e b6 00 d9 3d
       0.09974344 0.30731732 0.29967242 0.10595839
000080 29 c5 6a 3c 90 88 2e 3e fb 6e 6b 3d 97 0d 8d 3e
       0.014329233 0.17044282 0.057478886 0.2754943
000090 c1 d7 8d be 78 d4 b9 3b bf cb ed 3d ec 2a 6f 3e
       -0.2770367 0.00567108 0.11611127 0.23356217

weight f4 [4, 10]
000000 aa b7 39 3e 73 9a 0d 3e f8 0a 75 3e 4c 5e c3 3d
       0.18136469 0.13828449 0.23929965 0.0953947
000010 3b ea bf be b3 86 87 bd 13 fa fe bd c6 b3 4d be
       -0.3748339 -0.06617489 -0.124500416 -0.2008811
000020 55 62 04 3e 44 9c 77 be 35 62 8c 3e 32 96 1d 3e
       0.12928136 -0.24180704 0.27418676 0.15389326
000030 ec 97 80 3e 72 6f 4f 3e 80 c8 a0 be 72 25 1c 3c
       0.25115907 0.20257357 -0.3140297 0.009530412
000040 7e 7c 21 3e 23 eb 45 3e 89 0c 8a 3d e5 ab c7 be
       0.15770146 0.19327979 0.06740672 -0.38998333
000050 d3 dc bb 3e 75 c4 22 3e c5 79 53 3e da 71 19 be
       0.36691913 0.15895255 0.2065192 -0.14984837
000060 b7 92 72 bd 0b 1f 84 bd fc 9e 57 3e f0 f9 4c be
       -0.05922195 -0.064512335 0.21056741 -0.20017219
000070 ce ce 59 be da 11 bb 3d 3b b4 b3 bd 73 6a 8e be
       -0.21270296 0.09134264 -0.087746106 -0.2781559
000080 80 79 50 bd 04 ad 5d bd ba aa 84 3e 51 9c ae bd
       -0.05089712 -0.05412008 0.25911504 -0.08525909
000090 9c 15 79 bd 2e b9 7e 3e 1a 09 1a be 92 c4 3f be
       -0.060811624 0.24875328 -0.15042534 -0.1872733

bias f4 [4]
000000 0c 4f 56 3e 89 ee 76 3e dc 71 ff 3b 92 00 9c bd
       0.20928591 0.24114431 0.0077955555 -0.07617296

weight f4 [4, 10]
000000 03 13 00 be f3 7e 21 be 71 46 99 3e 22 d4 9a 3e
       -0.12507252 -0.15771084 0.29936555 0.3023997
000010 86 98 a4 bd e1 b1 64 3c b9 97 e3 3d 25 a8 1b be
       -0.08036904 0.013958425 0.11112923 -0.15200861
000020 14 ff af be 98 62 29 bd c8 6d 96 be 9c 84 84 be
       -0.34374297 -0.041353792 -0.2938063 -0.25882423
000030 9d 90 ba bd e9 81 33 be 88 c4 48 be 97 e5 44 3c
       -0.09109614 -0.17530026 -0.1960622 0.012017629
000040 9e bb b7 3e 00 62 13 3c 24 57 8e be b1 da ae 3e
       0.35885328 0.008995533 -0.27800858 0.34151223
000050 b2 41 8f 3e ab d3 8c be b7 c2 8f be e2 c3 76 3e
       0.2797981 -0.2750524 -0.28078243 0.24098161
000060 25 de 97 be 9d 41 16 3e 35 cd 26 3e 2e 23 51 3e
       -0.2966167 0.14673467 0.16289218 0.20423576
000070 22 a1 0a be 8b 6b 6f be 84 ff b4 3e bc ae 73 bd
       -0.1353803 -0.23380868 0.35351193 -0.05949281
000080 49 fd b9 3d 83 54 a4 bd ec 43 5a 3e cf d9 0c 3e
       0.090815134 -0.08023932 0.21314973 0.13754962
000090 6b 4b 8f bd f9 73 32 be 7b 29 37 be 12 b8 d7 bd
       -0.06996807 -0.17427053 -0.17886917 -0.105331555

bias f4 [4]
000000 52 32 4d be ac 95 2c be f2 1d f7 3d 7b 9e ac bd
       -0.20038727 -0.1685397 0.120662585 -0.08428665

weight_ih_l0 f4 [40, 4]
000000 dc ea 2c 3e 5c 55 d7 bd 87 c7 18 be 92 43 83 3e
       0.16886467 -0.10514328 -0.14919864 0.2563749
000010 87 4e 83 be f7 8a 95 3e e8 ee a6 bd d6 67 97 3e
       -0.2564585 0.29207584 -0.081510365 0.29571408
000020 26 c0 93 3e 82 9b b9 3d 39 e5 d3 be 60 7a ad 3d
       0.28857535 0.09062864 -0.4138582 0.08470607
000030 d7 bb fe 3d b8 54 92 3e 6b 1d 57 be 1f c8 22 3e
       0.12438171 0.2858026 -0.21007316 0.15896653
000040 f0 7c 21 be f3 9c b0 be 66 9e 27 be a1 ef e0 bc
       -0.15770316 -0.34494743 -0.16369018 -0.027458014
000050 bf 3a a6 bd e8 c7 c0 3c 3a 5d 06 3e aa f4 b5 bd
       -0.08116674 0.023532823 0.131215 -0.088845566
000060 b6 27 d8 3b 82 e8 cb 3d 6a 85 d3 3b f7 e8 c7 3d
       0.006596531 0.09956457 0.006455113 0.097612314
000070 96 9e 87 be 4e 88 e1 bd 48 5c 4c 3e fd 03 14 3e
       -0.2648818 -0.11012326 0.19957078 0.14454646
000080 fb 3c 01 3e 0b 53 73 bd 12 a9 44 3d 9c b4 5a bc
       0.12620918 -0.059405368 0.0480128 -0.013348725
000090 14 11 c7 3d 02 c6 23 be 1f fd fe 3d c0 58 fa bc
       0.09720054 -0.15993503 0.12450623 -0.030559897
0000a0 0a e6 f6 bd 57 d2 97 3e 89 2d 88 3d 61 89 85 bd
       -0.12055595 0.29652664 0.0664931 -0.065203436
0000b0 55 81 ae 3e 52 a1 c8 bd a0 1d 37 be 05 4f 66 be
       0.34083048 -0.097963944 -0.17882395 -0.22491081
0000c0 37 78 1f 3c 78 f2 d2 bd 8b 78 08 3e 36 82 87 bd
       0.009733251 -0.103001535 0.13327233 -0.06616633
0000d0 13 54 78 3d fb 01 4a be 62 45 65 3e ab 0e ac 3d
       0.060627054 -0.19727318 0.22389749 0.08401235
0000e0 e2 ac 69 3d e9 4b 09 be 4e d8 d0 3c a5 ce fd bc
       0.05704964 -0.13407864 0.025493767 -0.030982325
0000f0 8e a6 36 be 4d 9f 12 3a 74 35 7c be 7e 06 38 3e
       -0.17836973 0.00055931957 -0.24629766 0.17971227
000100 02 26 35 3e 28 d7 1f 3d d8 58 02 3e 3f ab 60 ba
       0.1769028 0.03902355 0.12729204 -0.00085704395
000110 67 50 85 3d c8 53 88 3d 65 23 09 be 59 e5 84 3d
       0.06509476 0.06656605 -0.13392408 0.06489057
000120 ee 90 79 bd 7c 8d ab 3d 7a 67 3a 3c c5 39 49 bd
       -0.06092923 0.083765954 0.01137721 -0.04912736
000130 0f cf 81 3d 8b 25 ef ba 6b 22 2e be ea 5e 77 bd
       0.063383214 -0.0018245442 -0.17005317 -0.06039325
000140 90 0f 22 3e 9d 87 ea 3d 7d 28 5f 3c e8 f2 ca 3c
       0.15826249 0.114516474 0.013620493 0.02477403
000150 ff 69 5f 3d 94 78 96 bc 99 67 f4 bd 7d 9a a9 3d
       0.054544445 -0.018368043 -0.11933822 0.082814194
000160 6f 9e fc 3d 4a bf c4 3d e0 70 22 be 3d 09 1b 3d
       0.12334906 0.09606798 -0.15863371 0.037850607
000170 b9 66 0f 3e 59 c5 98 bc 89 d7 c0 bd b0 d7 1a 3d
       0.1400403 -0.01864879 -0.0941611 0.037803352
000180 49 0d c2 bb d8 cd 3a 3e 7b cf 0c 3e 68 f0 e9 3d
       -0.005921994 0.18242586 0.13751023 0.11422807
000190 fa 95 9e bd b9 dd cc 3d 5a 80 1e 3d 3b ae 6d 3d
       -0.077434495 0.10003228 0.038696624 0.058027487
0001a0 59 0d 44 3e 66 23 a8 3d 4b 05 fe 3c 79 76 75 be
       0.19145717 0.08209877 0.031008383 -0.23970975
0001b0 4d 44 b0 3d da a5 12 3e fe 11 c2 3d a8 33 55 be
       0.08606777 0.1432108 0.09476088 -0.20820487
0001c0 85 24 06 3e 46 37 93 be 1e 05 81 3e 3f f3 39 3d
       0.13099869 -0.28753108 0.25199217 0.045397993
0001d0 a7 de 09 3d 51 cc cc 3d 85 ab cf 3d 9c 75 a4 3d
       0.033659603 0.09999908 0.10140137 0.08030245
0001e0 34 4f da bc e5 76 32 3c 08 cf 82 3e 2c b3 3c 3c
       -0.026649095 0.0108926045 0.25548577 0.011517327
0001f0 9a c7 1b 3d 30 bc 7e 3d 1b 59 11 3e b2 a9 8e 3e
       0.03803215 0.06219119 0.14194147 0.27863842
000200 7e fa 86 3d 08 5b db bd 9d f1 c7 3d d4 66 aa 3d
       0.06590746 -0.10710722 0.09762881 0.08320394
000210 89 aa ae bd 2e ac 4e 3e fe fb 98 bd 65 c2 07 3e
       -0.08528621 0.20182869 -0.07469939 0.1325775
000220 c4 28 05 3e c9 90 c2 bd a3 24 3c 3e fd 9d 41 3d
       0.13003832 -0.09500272 0.18373351 0.04726981
000230 90 ee 23 be 05 65 b4 be 91 2a 8d 3e b7 4f fb bd
       -0.16008973 -0.35233322 0.27571538 -0.12271064
000240 47 35 8a be 30 06 89 be 87 fe 84 be 2c 1b a8 3c
       -0.26993772 -0.26762533 -0.2597544 0.020520769
000250 f2 98 3f 3e 83 15 d6 bb 25 36 21 be a2 69 8c 3d
       0.18710688 -0.006533326 -0.15743311 0.06856085
000260 24 93 2b bd 6e 5f 96 3e 09 ae 92 be a2 e0 f0 bd
       -0.04188837 0.29369682 -0.28648403 -0.11761595
000270 b8 38 77 be d1 13 1f be 42 3e b6 3d 49 3d 60 bd
       -0.2414273 -0.15534903 0.088985935 -0.054745946

weight_hh_l0 f4 [40, 10]
000000 7b 59 76 3e 55 2c 3d 3d 1c 3f b0 3c 67 a4 c6 be
       0.24057572 0.046184856 0.021514468 -0.38797304
000010 fe 41 66 bd be d7 c2 be bc 3e 15 be 93 aa 6f 3e
       -0.05621528 -0.38055223 -0.14574713 0.23404913
000020 13 48 2a 3e 88 31 46 be c2 d5 cc 3d 92 99 c6 bd
       0.16629057 -0.19354832 0.100017086 -0.0969726
000030 5c 50 48 be b2 8d 37 be 70 73 32 3e 09 9a 02 3e
       -0.19561905 -0.17925146 0.17426848 0.12754072
000040 17 8a c3 3d c8 36 e6 3d 74 5c 3d be 95 f6 fa bd
       0.09547823 0.112409174 -0.184923 -0.12254063
000050 9f 4a 7f be db ab e5 bd 06 60 cb 3c f2 17 cf bd
       -0.2493081 -0.112144195 0.024826061 -0.10111989
000060 a9 31 82 bb cd 4c 37 3e 86 d5 25 be 50 52 b0 3e
       -0.003973205 0.17900391 -0.16194734 0.344378
000070 50 0f a7 bd 0f 6d 8a 3d ba ca d1 3d d8 39 a1 bd
       -0.081572175 0.067590825 0.10243745 -0.07872361
000080 4a 4e 4d 3e ad 80 42 3d c0 82 4a be 8e e5 69 3e
       0.20049396 0.047485996 -0.1977644 0.22841474
000090 15 6b b1 bd aa 17 e3 bd 35 71 96 bc 71 f5 0f bc
       -0.086630024 -0.11088498 -0.018364528 -0.008786545
0000a0 78 48 c9 be b9 71 80 3d 75 30 88 be d3 8f b2 be
       -0.39313102 0.06271691 -0.2659947 -0.34875354
0000b0 46 86 8c bd 63 16 60 3e fb f8 3c be a1 f1 ca bd
       -0.06861548 0.2188354 -0.18454354 -0.09909368
0000c0 2e c6 8f bb 51 29 74 3d a4 46 8d be 38 bc ed bc
       -0.0043876385 0.059609715 -0.27592957 -0.029020414
0000d0 c3 ba 04 3e ad ff e1 3d a9 5a e4 bc fd ab f9 bb
       0.12961869 0.110350944 -0.027875261 -0.0076193796
0000e0 55 84 86 be d1 24 9d bb b0 cf 14 bd 95 3a c4 3e
       -0.26272836 -0.0047956486 -0.03633088 0.38325945
0000f0 00 8a 57 be 1a ef 8c be f9 39 5f bd b0 a7 42 be
       -0.21048737 -0.2752617 -0.054498646 -0.1900928
000100 f8 10 ad be 7c 74 ac be 0d ce 8e bd 6f 6b 8f be
       -0.3380201 -0.3368262 -0.06972895 -0.28011653
000110 a0 80 8e 3d 0c 08 b2 3d 38 d7 8d be 94 98 8e be
       0.06958127 0.08692941 -0.2770326 -0.27850783
000120 a9 1d 88 be f8 21 82 be db d3 1d be dc c5 96 3e
       -0.2658513 -0.2541654 -0.15412848 0.2944783
000130 84 04 45 3e e4 89 aa bc b6 98 58 3e 39 52 a4 3e
       0.19240004 -0.020817704 0.21152005 0.3209398
000140 04 7a ec be 52 ab fd be fa fb 3a 3e 7d 14 1e be
       -0.4618684 -0.4954477 0.18260184 -0.15437503
000150 5d 78 c2 be 3a 45 97 be 6e 52 15 3e eb f9 4e be
       -0.37982455 -0.29545003 0.14582226 -0.20212524
000160 5c a5 7a be 56 88 09 3f c0 05 2e 3e ef a4 ae 3c
       -0.24477142 0.5372366 0.16994381 0.02131888
000170 a1 cd b9 bd 9c 57 4a 3d 9c fe d6 3d 79 eb e8 be
       -0.09072424 0.049399957 0.10497782 -0.4549215
000180 ef f5 b1 3e f8 78 ea be 08 ac 5c bc 54 66 6b 3e
       0.34757945 -0.45795417 -0.01346875 0.22988254
000190 eb 20 11 3d 2a 27 4b be 2f 2c d2 3c 04 e7 c5 be
       0.035431784 -0.19839159 0.025655834 -0.38652813
0001a0 c9 70 12 be 61 05 e0 be 4e 32 cf 3b 13 5c da bd
       -0.14300837 -0.43754104 0.0063231355 -0.10662093
0001b0 b2 92 18 bd 95 8c 68 3e 4f 4d 38 3e 62 04 6a be
       -0.037249275 0.22709878 0.17998241 -0.22853234
0001c0 05 ec 9b 3d d9 7f ca bd 4f e8 b8 3d 24 0f 5b be
       0.076133765 -0.09887666 0.09028684 -0.21392494
0001d0 38 98 5f 3e 5c 12 12 3e 40 15 57 be fe af c0 3d
       0.2183541 0.14264816 -0.210042 0.09408568
0001e0 c1 bb 61 be 8f 46 1c be d4 9c 4b 3e 95 70 ce bd
       -0.22044279 -0.15261291 0.19884044 -0.10080067
0001f0 4a 91 eb be 64 89 25 3d 40 34 00 3d 98 af bc 3e
       -0.46009284 0.04041423 0.03129983 0.36852717
000200 b3 94 55 bd 9f 9f 5b 3e a9 e8 96 be 4d 45 bd 3d
       -0.052143764 0.2144761 -0.2947438 0.09241734
000210 9a f5 7f 3e b6 7c 14 3e 39 8c 14 be 9b e3 21 3e
       0.24996033 0.14500698 -0.14506616 0.15809481
000220 f5 da 84 bd 72 ab 06 3e 89 44 72 3e 98 10 12 3e
       -0.06487075 0.13151339 0.23658957 0.14264143
000230 d9 36 ab bd f1 58 83 bd 45 1f 59 3e 7a 4f 81 be
       -0.08360071 -0.064134486 0.21203335 -0.25255948
000240 4e f0 a8 be 0e 0b 14 be e5 50 11 be 65 2b 5e 3d
       -0.32995838 -0.14457342 -0.14191015 0.054240603
000250 7c a0 1c 3e 20 08 08 3f e5 ce 9f 3d b6 df 30 bb
       0.15295595 0.531374 0.07803134 -0.002698881
000260 0b e1 1f 3e ad 70 1d be 2c 46 b8 be dd 95 1d bd
       0.15613191 -0.15375014 -0.35991037 -0.038473
000270 e0 ee 86 3e ec 8a c3 bd 1f 3d ba be de 18 a6 bd
       0.26354122 -0.095479816 -0.36374757 -0.08110212
000280 6f 6f 34 be 71 20 ec be 23 00 d4 bc 14 b7 b9 3b
       -0.17620634 -0.461185 -0.025878971 0.0056675766
000290 a8 36 c9 be ab 8f 76 bd b2 10 77 be d6 4e b5 be
       -0.39299512 -0.060195606 -0.24127463 -0.3541171
0002a0 ee eb fd bd 24 2e c0 3e d5 66 ed be 65 2c bb be
       -0.12398516 0.37535203 -0.46367517 -0.36557308
0002b0 38 39 b4 3e 6a 0e 97 3c 3f 6e 57 be e3 39 53 be
       0.35199904 0.01843949 -0.2103815 -0.20627551
0002c0 cb bf 43 be d6 88 16 bd 47 4e 66 be 7d d8 60 3e
       -0.19116132 -0.03675159 -0.22490798 0.21957584
0002d0 17 28 93 3c 0e b9 0e 3d c6 59 94 bd 52 24 f0 be
       0.017963452 0.03484445 -0.072436854 -0.4690271
0002e0 86 82 80 be 6e ee 19 bd 4c 10 2f be a3 04 9f 3e
       -0.2509958 -0.0375809 -0.1709606 0.31058225
0002f0 2c 5d 10 be 56 2d 1e 3f 7d 82 5b 3d 19 da 15 3e
       -0.14098042 0.6178793 0.05359124 0.14633979
000300 74 b7 c8 3d bf d7 25 be ce 67 80 3e cd 62 ac bd
       0.09800616 -0.16195582 0.25079197 -0.08417282
000310 60 af ce 3c b0 62 0e be 03 ec a0 3e c4 a2 a0 3e
       0.02523011 -0.13904834 0.31430063 0.3137418
000320 fc f4 99 be a6 80 90 bc cf 90 af 3d 2c ec 1e be
       -0.3006972 -0.01763947 0.08572542 -0.1551978
000330 5e 70 55 3d 89 3a eb bd 9b 48 de 3d 60 b2 ae be
       0.052109115 -0.11485774 0.10853692 -0.34120464
000340 4d be 93 bd dd 08 51 be 55 fa 58 bd d7 da 5c 3e
       -0.07214031 -0.20413537 -0.05297311 0.21567856
000350 74 a6 c2 bc bd 02 ca be ab db 21 bd 71 5b f6 bd
       -0.023761012 -0.39455214 -0.039516132 -0.1202916
000360 41 6d 4e 3e a7 79 db 3d 9a 84 66 bd fc ff 10 3d
       0.20158865 0.10716563 -0.056278802 0.035400376
000370 48 1b 83 3e 10 96 8b be 46 76 c3 be 3a 50 92 be
       0.2560675 -0.27262926 -0.38176173 -0.28576833
000380 34 a9 bb ba 74 f8 80 be 94 c6 5a 3e aa 1a 98 be
       -0.0014317394 -0.25189555 0.21364814 -0.29707843
000390 fc f0 22 3e 3d ca 10 3e b0 60 cb bc 6b fa 7e 3e
       0.1591224 0.14139648 -0.024826378 0.24900214
0003a0 f8 41 bf 3d d8 f5 84 be a4 8a 4d bd e1 8b 3d bd
       0.093387544 -0.25968814 -0.050181046 -0.046275977
0003b0 87 45 c3 3e dc b3 bb be e2 40 b0 bd 72 0e 57 be
       0.38138983 -0.3666066 -0.086061254 -0.21001604
0003c0 05 fc 9a be 22 c0 31 be 9e 60 4a 3e 76 58 77 3d
       -0.302704 -0.17358449 0.19763419 0.060387097
0003d0 d3 37 23 3c 65 75 9a 3e f5 a4 bf 3b 9d 1b b4 3e
       0.00996204 0.3016769 0.005848522 0.35177317
0003e0 c3 8b 6a be de 86 5b b9 d6 49 38 3e 7e d8 3f bd
       -0.22904877 -0.0002093571 0.17996916 -0.046837322
0003f0 c7 6f 74 be 6f b6 10 bc 48 21 b0 3d aa 08 df be
       -0.23870765 -0.008832558 0.08600098 -0.43561298

bias_ih_l0 f4 [40]
000000 b4 96 f5 bd c7 02 19 be da 8d 01 3e 5a 08 c1 be
       -0.11991635 -0.14942466 0.12651768 -0.37701684
000010 cd 89 01 bf 9e d6 c5 bd d1 3f da be f0 fd 9a be
       -0.5060089 -0.096600756 -0.42626813 -0.30271864
000020 b1 03 0c bf 20 28 c5 3d 93 5c 6e 3e d6 b0 63 bd
       -0.5469313 0.09626794 0.23277502 -0.055588566
000030 c7 0f f5 be e1 ef 5d bc 40 72 5b be 55 57 96 be
       -0.478636 -0.013545961 -0.21430302 -0.29363504
000040 c2 23 e7 3c c6 3c e5 be dd 4e a4 bc 27 50 57 be
       0.028215293 -0.4477293 -0.020057136 -0.2102667
000050 a6 36 5b 3e 44 4e 9f 3e d5 4d 4a 3e 88 36 80 3c
       0.21407565 0.311144 0.19756253 0.015651003
000060 29 f8 1b 3e 48 07 be 3c 67 f0 a1 bc 29 86 1e be
       0.15231384 0.023196831 -0.019767953 -0.15480866
000070 f7 0a 4c 3e e7 8b b5 be d4 c1 96 bd d8 0a d3 3c
       0.19926058 -0.354583 -0.073611885 0.025762007
000080 e7 65 dc bd d4 7b d0 3d 4c 5e 25 3d e4 b0 b3 3d
       -0.10761624 0.10179868 0.04037313 0.087739736
000090 d5 91 1e bd c8 22 bc be fb 8d 8a be 17 c0 1f be
       -0.038713295 -0.36745286 -0.27061448 -0.1560062

bias_hh_l0 f4 [40]
000000 d6 27 a7 3d dd d8 20 be 7f e1 3e be cb 33 d0 be
       0.08161895 -0.15707727 -0.18640707 -0.40664515
000010 41 08 7a bd f6 e7 b9 be a2 0e f0 bd 1d e0 10 bd
       -0.061043028 -0.36309785 -0.11721541 -0.03536998
000020 26 29 96 be 20 bf d0 3c 3f 1d 85 3e ac a7 8d 3b
       -0.2932827 0.02548176 0.25998875 0.0043229666
000030 56 61 bd be 94 6d 68 be e0 72 cd be 79 90 ad be
       -0.36988324 -0.2269805 -0.40126705 -0.33899286
000040 36 b0 8d be 67 da f1 be e2 f3 b8 bd ef ea f7 bc
       -0.276735 -0.4723694 -0.09030892 -0.030263392
000050 7b 22 b0 3e 12 d1 ff bd 9b 2f 78 be 61 c5 1f 3e
       0.34401307 -0.12491049 -0.2423691 0.15602638
000060 3b fd 42 3e 34 b3 58 bd 78 61 f3 3d ac 16 49 3e
       0.19041912 -0.052905276 0.11883825 0.19637555
000070 76 4e 09 3e 8c cc 95 be 13 69 b4 bd ca 63 0f 3e
       0.13408837 -0.2925762 -0.08809104 0.1400291
000080 ef f3 0f be 6e 8e 2a 3e 97 93 7c be 62 22 32 3d
       -0.14057897 0.16655895 -0.24665676 0.04348982
000090 88 50 6f be 44 05 88 be 52 82 2f 3c 99 5b 7c 3d
       -0.23370564 -0.26566517 0.010712223 0.06161079

weight f4 [1, 10]
000000 4e 1d ea 3d cf d7 c1 3c 50 2e e6 3c 27 c5 7c 3d
       0.11431371 0.023662476 0.028098255 0.061711457
000010 53 6d df bc f0 2a 11 3e e4 ea 9a bd e8 71 e2 3d
       -0.02727381 0.14176536 -0.07564333 0.11056882
000020 c9 e4 c9 bc 17 33 53 be
       -0.024645226 -0.20624958

exp_avg f4 [40, 1]
000000 8a 76 58 b3 a3 10 37 b2 a9 09 99 32 ab 41 ec 31
       -5.039923e-08 -1.0655785e-08 1.7815937e-08 6.8759696e-09
000010 ae c0 5d b3 03 97 82 b2 a2 b3 0c b0 68 96 04 32
       -5.1630813e-08 -1.5202664e-08 -5.1186977e-10 7.71761e-09
000020 8a e4 3c b2 36 be 24 b3 c5 39 78 b3 5d a5 39 b2
       -1.0995004e-08 -3.835722e-08 -5.779454e-08 -1.08060165e-08
000030 b7 d4 2d 32 2b f0 af 31 ee e8 9d b3 88 68 54 b2
       1.0118291e-08 5.1204743e-09 -7.353252e-08 -1.2363792e-08
000040 82 84 0a af ff 2c 8d 31 4c 3b ba b2 06 58 27 b3
       -1.2598103e-10 4.1087556e-09 -2.1680215e-08 -3.8962774e-08
000050 13 10 a5 34 40 cd c6 33 80 a2 e7 33 20 24 aa 33
       3.074534e-07 9.257428e-08 1.0786334e-07 7.922813e-08
000060 c2 87 75 b4 78 53 5d b3 ff 40 e8 31 56 2b 12 b3
       -2.2866791e-07 -5.1531487e-08 6.759478e-09 -3.4032688e-08
000070 45 c6 a1 33 3c ea 86 b4 73 22 3f b3 84 f8 61 b2
       7.533212e-08 -2.5129873e-07 -4.4501984e-08 -1.315323e-08
000080 58 5e 9a 32 bd c8 7a 31 06 0c d0 b3 2e 45 7c b2
       1.7970862e-08 3.6493895e-09 -9.687942e-08 -1.468406e-08
000090 13 83 02 30 f8 a9 3c 32 90 f1 0e b3 e0 90 1d b3
       4.747999e-10 1.0981687e-08 -3.328165e-08 -3.6686174e-08

exp_avg_sq f4 [40, 1]
000000 f5 6d 1a 2a 9e 47 e1 27 5d d4 8a 28 f7 70 84 27
       1.3716097e-13 6.2527693e-15 1.5413176e-14 3.6759837e-15
000010 25 10 ac 29 34 40 a6 28 c5 3b 4b 25 15 c8 b9 27
       7.641135e-14 1.8457546e-14 1.7627694e-16 5.1564744e-15
000020 45 a7 4b 28 30 fe ae 29 ff 4a 46 2a 81 f6 dd 27
       1.13050345e-14 7.771247e-14 1.7611952e-13 6.1607082e-15
000030 37 19 bb 27 f6 96 12 27 d3 d6 2a 2a 50 cc 42 28
       5.1930264e-15 2.0343406e-15 1.5173565e-13 1.08134666e-14
000040 b3 c6 06 25 4e 3a ba 27 71 fa 30 29 b3 bb ad 29
       1.1689969e-16 5.1688585e-15 3.9297074e-14 7.715304e-14
000050 88 6f b0 2c e4 25 00 2b f3 45 fe 2a 2d 89 b1 2a
       5.0146033e-12 4.552732e-13 4.5168e-13 3.15367e-13
000060 c7 96 ce 2b f8 73 44 2a 21 de 92 29 29 5e b0 2a
       1.467903e-12 1.7448532e-13 6.522236e-14 3.1329217e-13
000070 95 15 00 2b c2 5a 64 2c 6b 86 36 2a 71 24 52 28
       4.5504686e-13 3.245113e-12 1.6211483e-13 1.1665244e-14
000080 91 29 89 28 88 a8 6e 27 b3 20 c7 2a 04 6f 76 28
       1.5228082e-14 3.3120496e-15 3.537219e-13 1.3679816e-14
000090 6d 7d af 25 9b 77 4c 28 16 89 92 29 fa d4 c6 29
       3.0442653e-16 1.135021e-14 6.507483e-14 8.829912e-14

exp_avg f4 [40, 10]
000000 77 84 6a b2 d5 43 a9 b1 dc 0f a9 31 df a1 63 31
       -1.3650712e-08 -4.926259e-09 4.9203503e-09 3.312486e-09
000010 5c b3 8b 32 9d 6c 75 32 16 fb e7 b0 99 35 e2 b1
       1.6263293e-08 1.4285573e-08 -1.6878825e-09 -6.583559e-09
000020 29 61 b1 b2 d0 35 44 32 f1 b8 92 b1 e7 a8 c8 b0
       -2.0649695e-08 1.1420937e-08 -4.2701847e-09 -1.459992e-09
000030 ab 0f dd 30 7c 7a 9b 30 97 f7 af 31 b0 1f 9a 31
       1.6084319e-09 1.1312546e-09 5.121318e-09 4.4855923e-09
000040 f1 97 ea af 90 39 0e b1 05 02 e0 b1 74 fe 6e 31
       -4.2672313e-10 -2.069644e-09 -6.5194876e-09 3.4778198e-09
000050 da c9 2b 31 45 53 77 30 bb 4f 6e b0 85 55 24 b0
       2.4998514e-09 8.997641e-10 -8.66972e-10 -5.9784383e-10
000060 3d a3 49 b1 1a 13 33 b1 a9 98 bf 2f 57 b5 99 30
       -2.934214e-09 -2.6058786e-09 3.485117e-10 1.1183755e-09
000070 68 4e 7d 31 14 d3 10 b1 62 a8 d8 31 c6 e5 0d 31
       3.6860914e-09 -2.1074742e-09 6.3055703e-09 2.0648812e-09
000080 ef fe 2b b1 da 8f fa b0 b9 af 03 b2 07 cd e4 b1
       -2.5028688e-09 -1.8230779e-09 -7.665158e-09 -6.6589823e-09
000090 82 dd 00 30 f6 64 56 31 84 bb 27 32 8e 52 ad b1
       4.688091e-10 3.1198488e-09 9.7633155e-09 -5.044348e-09
0000a0 72 34 e0 b1 c0 e8 31 b1 30 4e 1c 31 aa b7 c0 30
       -6.5252204e-09 -2.5889193e-09 2.2745432e-09 1.4022039e-09
0000b0 2b 0d 06 32 a9 e8 ea 31 89 b5 8d b0 30 aa 5b b1
       7.802821e-09 6.8367467e-09 -1.0310696e-09 -3.1965435e-09
0000c0 b4 88 2a b2 76 d3 c5 31 e5 f8 14 b2 ac 1d 4a b1
       -9.926385e-09 5.757495e-09 -8.671326e-09 -2.9411735e-09
0000d0 98 10 5c 31 1f 2a 1d 31 7e 50 33 32 9f 7c 1b 32
       3.2023646e-09 2.287045e-09 1.0437473e-08 9.050523e-09
0000e0 19 af 45 b0 77 39 96 b1 6a c1 62 b2 db cb ed 31
       -7.191701e-10 -4.3721076e-09 -1.3198909e-08 6.9207835e-09
0000f0 f5 b5 08 b0 de df 36 af 5c 42 50 2f e1 b5 19 2f
       -4.973509e-10 -1.6632337e-10 1.8941065e-10 1.3979885e-10
000100 9a 92 24 30 b6 4e 0f 30 95 29 3b ae 43 31 84 af
       5.9871186e-10 5.213495e-10 -4.255581e-11 -2.4045663e-10
000110 c7 1d 4f b0 70 9f db 2f 63 0f 54 b2 3b 57 88 b1
       -7.534848e-10 3.9949155e-10 -1.2343523e-08 -3.968038e-09
000120 90 57 a3 31 0a 1f 72 31 f6 c4 80 32 56 df 5d 32
       4.753879e-09 3.5233279e-09 1.4990729e-08 1.2914674e-08
000130 42 cb 3d b0 9f 84 d9 b1 e4 08 a3 b2 18 6e 24 32
       -6.9046646e-10 -6.3306085e-09 -1.897974e-08 9.571089e-09
000140 da d0 23 b2 6b 17 5a b1 b1 55 7b 31 99 47 33 31
       -9.535336e-09 -3.1736487e-09 3.6574017e-09 2.6088627e-09
000150 0d c7 46 32 b7 db 2b 32 7b 8b 3d b0 ab bd a7 b1
       1.1570376e-08 1.0003467e-08 -6.8956013e-10 -4.8819024e-09
000160 e1 93 7d b2 19 f4 01 32 0f d8 9b b2 c6 2f d4 b1
       -1.4760162e-08 7.56429e-09 -1.8142627e-08 -6.1754433e-09
000170 7f 68 ec 31 6a 84 a7 31 b3 11 bc 32 c6 9d a3 32
       6.880384e-09 4.8753934e-09 2.189413e-08 1.9047445e-08
000180 61 8d de b0 c7 c8 1a b2 17 04 ef b2 76 5c 7c 32
       -1.6192808e-09 -9.009631e-09 -2.7825122e-08 1.4689354e-08
000190 ab b9 8d b2 83 ee ca b1 47 01 ce 31 53 c7 8b 31
       -1.6498992e-08 -5.9060894e-09 5.9955343e-09 4.068093e-09
0001a0 4c 14 a9 32 3b 6e 94 32 01 e5 07 b1 fb d1 08 b2
       1.968342e-08 1.7279595e-08 -1.977526e-09 -7.963986e-09
0001b0 11 ba d6 b2 46 48 6c 32 fe 6c 91 b1 37 36 c7 b0
       -2.4997492e-08 1.3753441e-08 -4.2324464e-09 -1.4494564e-09
0001c0 3f c7 da 30 27 a8 99 30 a2 5c ae 31 a2 bd 98 31
       1.5918217e-09 1.1180007e-09 5.0745976e-09 4.445341e-09
0001d0 d9 4e ea af a7 ee 0c b1 85 f7 dd b1 fd 0d 6d 31
       -4.2620377e-10 -2.050834e-09 -6.4600862e-09 3.449599e-09
0001e0 48 bd be 30 4e 93 09 30 5f e6 03 b0 ce a0 b5 af
       1.3878116e-09 5.004964e-10 -4.79849e-10 -3.3037967e-10
0001f0 b2 bc df b0 cf c4 c6 b0 88 8c 56 2f 5d 6a 2a 30
       -1.6279016e-09 -1.4462332e-09 1.9513113e-10 6.199679e-10
000200 2d 7f 0c 31 f9 f5 a0 b0 a6 29 9a 31 12 03 ca 30
       2.0444972e-09 -1.1711442e-09 4.4867248e-09 1.4698307e-09
000210 83 ff f4 b0 98 62 b2 b0 03 6b bb b1 9b d8 a2 b1
       -1.7825957e-09 -1.2979227e-09 -5.454582e-09 -4.7394457e-09
000220 35 54 b8 2f d3 73 18 31 33 c2 ee 31 85 d4 76 b1
       3.3529238e-10 2.218475e-09 6.9487895e-09 -3.5918515e-09
000230 2d ac 2c b2 cc ae 86 b1 ed 1f 74 31 7b 8a 19 31
       -1.0050866e-08 -3.9197854e-09 3.552482e-09 2.2343147e-09
000240 25 c7 4e 32 a8 15 35 32 83 9b cf b0 0c 1f a9 b1
       1.2036058e-08 1.0540511e-08 -1.5105431e-09 -4.922077e-09
000250 05 8c 83 b2 54 06 17 32 ea fb eb b1 e3 d2 1f b1
       -1.531408e-08 8.790796e-09 -6.8680395e-09 -2.325742e-09
000260 2e 45 2f 31 96 8a fa 30 7b 19 0e 32 66 8f f6 31
       2.5505176e-09 1.8229283e-09 8.271281e-09 7.175845e-09
000270 dc dc 1c b0 d2 6a 6d b1 d2 cf 33 b2 70 8c bc 31
       -5.706633e-10 -3.454876e-09 -1.0466424e-08 5.487486e-09
000280 98 03 f4 af 8f f5 21 af 4a 54 3a 2f a5 a5 09 2f
       -4.4385895e-10 -1.4730105e-10 1.6946547e-10 1.2518926e-10
000290 73 e7 12 30 f8 d8 ff 2f 15 8a 21 ae 01 86 6c af
       5.34434e-10 4.6538395e-10 -3.6729803e-11 -2.1511683e-10
0002a0 50 07 39 b0 6f 21 c3 2f cb 9f 4f b2 8d cf 85 b1
       -6.7313e-10 3.549405e-10 -1.20853185e-08 -3.8944052e-09
0002b0 26 5d a0 31 1d 44 6d 31 2f 3d 7c 32 d3 66 59 32
       4.6672026e-09 3.4526757e-09 1.4682242e-08 1.2654442e-08
0002c0 9a 65 3e b0 97 ad d4 b1 18 c3 9f b2 47 6f 21 32
       -6.926598e-10 -6.189747e-09 -1.8598755e-08 9.396735e-09
0002d0 84 f3 9b b2 78 83 cf b1 17 f5 ef 31 e5 34 ab 31
       -1.8155113e-08 -6.039439e-09 6.983679e-09 4.9827684e-09
0002e0 0b 43 bd 32 e6 b6 a3 32 c2 c5 b5 b0 6e 5a 1f b2
       2.2032983e-08 1.905887e-08 -1.3225689e-09 -9.275579e-09
0002f0 df 81 f1 b2 f7 b2 77 32 59 af 9d b2 19 7b d6 b1
       -2.8115151e-08 1.4417984e-08 -1.8356944e-08 -6.2422143e-09
000300 31 cc ef 31 a6 00 aa 31 b5 54 be 32 5a a0 a5 32
       6.9790294e-09 4.947725e-09 2.2157431e-08 1.9281448e-08
000310 03 37 e1 b0 40 72 1c b2 4f f7 f1 b2 fd 6d 7f 32
       -1.638654e-09 -9.1063725e-09 -2.8168555e-08 1.4867962e-08
000320 56 b3 b1 33 30 08 00 33 03 a9 00 b3 b1 7d ad b2
       8.274826e-08 2.980977e-08 -2.9956038e-08 -2.0197009e-08
000330 a2 d5 d3 b3 f6 1a ba b3 e6 32 2f 32 97 40 2b 33
       -9.864313e-08 -8.666204e-08 1.0197914e-08 3.9872784e-08
000340 38 8a 06 34 3c b6 94 b3 9d 95 05 33 ed 87 39 32
       1.2530006e-07 -6.924935e-08 3.1102548e-08 1.0799323e-08
000350 06 cc 46 b2 59 e4 09 b2 bc d2 1f b3 cc 34 0c b3
       -1.1571506e-08 -8.02637e-09 -3.7211734e-08 -3.264431e-08
000360 42 c9 65 31 47 19 81 32 21 84 4b 33 05 47 db b2
       3.3438288e-09 1.5029071e-08 4.738479e-08 -2.5527251e-08
000370 15 c1 59 32 b4 81 a0 31 df 6c 92 b1 2e 24 46 b1
       1.2674964e-08 4.6713584e-09 -4.2615365e-09 -2.8833358e-09
000380 9e e3 7d b2 84 5f 62 b2 b6 ff 05 31 91 5a bf 31
       -1.4778292e-08 -1.3176649e-08 1.9499402e-09 5.569128e-09
000390 80 0a 9f 32 b3 ed 39 b2 57 a4 8f 33 f8 00 bc 32
       1.8514811e-08 -1.0822464e-08 6.68885e-08 2.1886521e-08
0003a0 e2 b8 e4 b2 ab a5 a6 b2 49 a4 ae b3 01 ca 97 b3
       -2.6626768e-08 -1.940028e-08 -8.13239e-08 -7.06823e-08
0003b0 ef c1 ab 31 4d df 0d 33 3f 87 de 33 b1 03 66 b3
       4.9988027e-09 3.303221e-08 1.0362282e-07 -5.3554405e-08
0003c0 aa 8a fc b2 c0 e4 46 b2 5c 23 32 32 89 89 dd 31
       -2.9399718e-08 -1.1577129e-08 1.0369003e-08 6.4475825e-09
0003d0 e4 28 17 33 28 84 04 33 1f 46 9d b1 c2 bb 76 b2
       3.5194617e-08 3.085384e-08 -4.5772732e-09 -1.4361776e-08
0003e0 b3 78 40 b3 53 74 de 32 89 16 ea b2 9d c4 1e b2
       -4.481326e-08 2.58971e-08 -2.7251433e-08 -9.241515e-09
0003f0 7f da 2d 32 84 36 f8 31 b1 f4 0c 33 68 9d f4 32
       1.0119606e-08 7.2239477e-09 3.2818836e-08 2.8476919e-08

exp_avg_sq f4 [40, 10]
000000 98 57 75 2c 35 9c c4 2a c0 83 22 2b 78 f6 bd 2a
       3.4865218e-12 3.4924984e-13 5.77368e-13 3.3744166e-13
000010 49 a5 b4 2c 7c 7c 89 2c 4d 2c 8f 28 83 41 72 2b
       5.134258e-12 3.9075947e-12 1.5895402e-14 8.6066587e-13
000020 f2 c9 11 2d 9b 93 14 2c 02 9a 1a 2a 40 6e bc 28
       8.287137e-12 2.1114002e-12 1.373138e-13 2.0920006e-14
000030 9a 70 54 29 ca 94 2d 29 d9 da 68 2a 0a 73 4f 2a
       4.7171123e-14 3.854277e-14 2.0681667e-13 1.8425205e-13
000040 b9 a2 31 28 15 45 16 29 8b 1b ba 2a 48 a7 b8 29
       9.860759e-15 3.336661e-14 3.305935e-13 8.20026e-14
000050 94 98 1c 2a 67 67 e1 28 a4 b1 9f 29 8f 9e 8a 29
       1.390852e-13 2.5024862e-14 7.091834e-14 6.1559366e-14
000060 3b 91 74 2a cf b3 71 2a 5c 80 97 28 43 79 11 29
       2.172194e-13 2.1467484e-13 1.6820035e-14 3.2301645e-14
000070 fe 44 c0 2a dc a4 b6 29 da 87 02 29 04 4f e2 27
       3.4153924e-13 8.111022e-14 2.898363e-14 6.281327e-15
000080 97 a3 a7 28 e3 be 97 28 c0 6e 4f 29 a3 d7 5f 29
       1.861167e-14 1.6847152e-14 4.6059294e-14 4.9702982e-14
000090 d1 f9 b2 27 08 08 ef 27 26 e8 a1 29 f4 1a 96 28
       4.9675776e-15 6.6344533e-15 7.1901076e-14 1.6665034e-14
0000a0 bf 57 fc 2b 31 64 4c 2a 1d bd ad 2a 3a 1d 50 2a
       1.7930031e-12 1.81536e-13 3.0862197e-13 1.8484251e-13
0000b0 83 10 3a 2c e8 64 0e 2c bd 0d 50 28 05 c4 f8 2a
       2.6441356e-12 2.0235428e-12 1.15492985e-14 4.4189665e-13
0000c0 f3 10 96 2c 49 b1 98 2b 9b 6a 1a 2b 1d bd 7a 29
       4.265138e-12 1.0849456e-12 5.4859735e-13 5.567518e-14
0000d0 d1 c1 cd 29 b5 11 73 29 2a 36 63 2b 9c 4f 2d 2b
       9.1374506e-14 5.3972197e-14 8.072177e-13 6.1572427e-13
0000e0 4e d9 5f 27 fc c7 18 2a 1d 6f b7 2b a6 14 bb 2a
       3.1065268e-15 1.3569695e-13 1.3033772e-12 3.32322e-13
0000f0 73 d0 c7 26 90 2e 49 26 05 4a 2a 27 37 25 28 27
       1.3864899e-15 6.979899e-16 2.3632365e-15 2.3334858e-15
000100 d7 fe 35 27 51 49 99 27 eb 99 62 26 99 c1 9b 25
       2.5256945e-15 4.254552e-15 7.86181e-16 2.70194e-16
000110 62 85 86 27 41 88 4c 26 7c 07 2e 2a 48 4c 8b 28
       3.7337085e-15 7.0961376e-16 1.5456901e-13 1.5465182e-14
000120 0a 0f e0 28 1e 02 81 28 fd bf 7f 2a 06 1f 42 2a
       2.4875518e-14 1.4322795e-14 2.2715159e-13 1.7241425e-13
000130 07 fd 1d 26 03 b8 2c 29 af 92 ce 2a 2e eb d2 29
       5.4813233e-16 3.8351277e-14 3.6694733e-13 9.3666706e-14
000140 ec 5f a2 2a 9f d1 01 29 c7 dc 52 29 c3 71 f3 28
       2.884354e-13 2.882557e-14 4.682086e-14 2.7027756e-14
000150 e6 d3 ee 2a 7b 5a b5 2a 9b e7 9b 26 c2 b3 a0 29
       4.2424327e-13 3.2214842e-13 1.0818062e-15 7.1366104e-14
000160 e2 db 40 2b 88 d5 44 2a e6 b4 ec 2b d0 2c 3d 2a
       6.851725e-13 1.748238e-13 1.6819018e-12 1.680212e-13
000170 d9 b4 99 2a 0a 5a 31 2a e0 19 2e 2c 66 2f 04 2c
       2.7303748e-13 1.5751997e-13 2.474125e-12 1.878464e-12
000180 9d 47 e2 27 94 1a ea 2a 8c 96 8c 2c 58 7e 8f 2b
       6.2805244e-15 4.1585192e-13 3.9957534e-12 1.0195829e-12
000190 d6 f4 9c 2c ed 1b fb 2a 92 49 4d 2b 55 0f ee 2a
       4.460969e-12 4.4605934e-13 7.293273e-13 4.2287932e-13
0001a0 1b fa e6 2c 28 83 af 2c 3d a8 a2 28 27 22 9b 2b
       6.5647605e-12 4.9883604e-12 1.8058575e-14 1.1022892e-12
0001b0 59 78 3a 2d 1c 35 3e 2c 39 8d 1f 2a 08 25 c8 28
       1.05995985e-11 2.7030106e-12 1.4171033e-13 2.222052e-14
0001c0 e1 a4 62 29 39 f6 3b 29 89 9d 70 2a 52 10 59 2a
       5.032509e-14 4.1735905e-14 2.1370938e-13 1.9279134e-13
0001d0 eb 85 46 28 9f dd 1a 29 87 40 c0 2a 88 4e be 29
       1.1020247e-14 3.4387095e-14 3.4150826e-13 8.451318e-14
0001e0 d0 d9 4e 29 32 cd 3e 28 5b 2a 13 29 df 1b 05 29
       4.593011e-14 1.0591613e-14 3.2677294e-14 2.9556107e-14
0001f0 0c 60 a6 29 b4 65 b8 29 b2 6c 1c 28 13 bd 3a 28
       7.3885424e-14 8.188884e-14 8.683309e-15 1.0366073e-14
000200 49 1a 01 2a 85 a8 ec 28 e3 be 87 28 70 c3 92 27
       1.1466621e-13 2.6274347e-14 1.5070795e-14 4.0735034e-15
000210 f5 31 66 28 6f ac 56 28 44 09 de 28 ea 9d 05 29
       1.27783975e-14 1.1916777e-14 2.465097e-14 2.96689e-14
000220 27 d7 84 27 7a 62 71 27 8b 2f 2b 29 01 dc 18 28
       3.687063e-15 3.3498853e-15 3.8010864e-14 8.485401e-15
000230 d6 fd 7a 2c 68 0f ca 2a 31 93 28 2b 30 cb c6 2a
       3.5668044e-12 3.5893098e-13 5.988986e-13 3.5312855e-13
000240 8d df b8 2c 08 fe 8c 2c 3f d6 a8 28 e6 c0 77 2b
       5.2544137e-12 4.0072425e-12 1.8744661e-14 8.801973e-13
000250 92 2e 15 2d c2 fe 17 2c 8c ee b3 2a a7 e7 11 29
       8.48001e-12 2.159981e-12 3.1962313e-13 3.2397394e-14
000260 5e f4 6e 29 28 b5 0c 29 51 5d 04 2b 4b d5 c9 2a
       5.305857e-14 3.1243373e-14 4.7025323e-13 3.5852774e-13
000270 64 d1 fa 26 eb 03 b2 29 0b c1 55 2b 93 19 5a 2a
       1.740399e-15 7.9054676e-14 7.59407e-13 1.9371162e-13
000280 88 f8 8d 26 76 ce 24 26 f3 c5 0b 27 f8 f7 0b 27
       9.851205e-16 5.7178737e-16 1.9397434e-15 1.942455e-15
000290 40 2f 05 27 ab 16 74 27 1f b0 40 26 ca 8e 53 25
       1.8483072e-15 3.387409e-15 6.685207e-16 1.8349711e-16
0002a0 5e f3 42 27 eb 4c 0c 26 f7 27 2d 2a 9b ac 8a 28
       2.7054838e-15 4.86765e-16 1.5379352e-13 1.5395933e-14
0002b0 56 05 df 28 47 67 80 28 88 78 7e 2a df 2d 41 2a
       2.4760288e-14 1.4255644e-14 2.260155e-13 1.7157758e-13
0002c0 fc 8b 1d 26 27 dc 2b 29 f6 8d cd 2a 87 f0 d1 29
       5.466003e-16 3.816058e-14 3.651382e-13 9.323189e-14
0002d0 8a 74 8c 2b 4f a6 e0 29 08 f3 35 2a e2 b9 d1 29
       9.979944e-13 9.976448e-14 1.6160348e-13 9.31371e-14
0002e0 8a 8c ce 2b a3 cf 9c 2b 7c 52 84 27 1a 0a 8b 2a
       1.4676188e-12 1.1142097e-12 3.672679e-15 2.469837e-13
0002f0 24 d1 26 2c e3 52 2a 2b 56 37 e9 2b 7c 73 3a 2a
       2.3706115e-12 6.051116e-13 1.6571005e-12 1.6560185e-13
000300 56 23 97 2a 30 24 2e 2a 0c 81 2b 2c 99 32 02 2c
       2.6847508e-13 1.546686e-13 2.4372197e-12 1.8502198e-12
000310 a9 d3 db 27 fb ae e6 2a 42 83 8a 2c 49 6f 8d 2b
       6.1014193e-15 4.0977624e-13 3.9367684e-12 1.004954e-12
000320 08 6f 07 2f 58 e5 5d 2d 3b 6b c2 2d 7b 7f 6e 2d
       1.2317625e-10 1.261332e-11 2.2102866e-11 1.355704e-11
000330 95 1c 48 2f 56 0a 1a 2f 4e 23 93 2b 1d 2b 05 2e
       1.8200048e-10 1.400989e-10 1.0454777e-12 3.027899e-11
000340 48 42 a1 2f 3a c0 a3 2e e6 c7 37 2d 53 16 d2 2b
       2.9332825e-10 7.446528e-11 1.0446732e-11 1.4927594e-12
000350 06 1e 80 2c be 79 4f 2c ba a7 8b 2d a4 e7 77 2d
       3.641312e-12 2.948405e-12 1.5876956e-11 1.4091759e-11
000360 20 30 46 2b d9 bf 2f 2c 7a 3e de 2d 3b ed d9 2c
       7.041052e-13 2.4975493e-12 2.5266223e-11 6.193849e-12
000370 f6 8a ab 2c c8 b2 30 2b 72 06 cb 2b 5a 77 9c 2b
       4.87554e-12 6.277587e-13 1.4425806e-12 1.1117593e-12
000380 f9 6c 01 2d b6 2c dc 2c 59 50 84 2a c9 ef a4 2b
       7.356998e-12 6.25774e-12 2.3503663e-13 1.1719455e-12
000390 86 a4 4e 2d 5a 7e 4c 2c 20 7a 3c 2c 6d ae c1 2a
       1.1746276e-11 2.9060283e-12 2.67842e-12 3.440472e-13
0003a0 e1 81 5c 2b ac b2 28 2b 10 fa 8d 2c ec b8 70 2c
       7.8339944e-13 5.9933547e-13 4.0352235e-12 3.4208704e-12
0003b0 2a a5 0c 2a 3c ec 35 2b e1 de e2 2c ca 30 e1 2b
       1.24918e-13 6.463196e-13 6.448051e-12 1.6000753e-12
0003c0 09 86 12 2e da ed 7c 2c 86 1f f1 2c e3 b8 9f 2c
       3.3315604e-11 3.5943388e-12 6.8531318e-12 4.5395783e-12
0003d0 ae 8f 59 2e 22 5e 2b 2e ef 44 1f 2b 5b 57 0f 2d
       4.94677e-11 3.8964505e-11 5.658381e-13 8.148006e-12
0003e0 62 ed ae 2e 2b 98 b0 2d 32 78 b3 2c 08 e6 11 2b
       7.9547716e-11 2.007646e-11 5.1008303e-12 5.183358e-13
0003f0 48 72 70 2b 6d 54 0e 2b 4e 14 04 2d b6 9e c9 2c
       8.5423725e-13 5.05657e-13 7.50784e-12 5.730384e-12

exp_avg f4 [40]
000000 85 cc 6c 33 a5 5d 98 32 c0 05 2b b2 82 7c e8 b2
       5.513404e-08 1.7737714e-08 -9.954817e-09 -2.7064974e-08
000010 8a c5 db 32 f4 6c 1a 33 25 fd 0f 31 2b 08 62 33
       2.5584786e-08 3.595501e-08 2.0953135e-09 5.2627154e-08
000020 ae cc 2c 33 c5 f4 a2 33 4f d3 8f 33 95 df 96 32
       4.0233026e-08 7.588236e-08 6.697393e-08 1.7563972e-08
000030 8b 95 bd b1 1a 78 a5 b2 43 d4 2a 33 30 2f f5 32
       -5.517625e-09 -1.9263144e-08 3.977426e-08 2.8543212e-08
000040 0d bb 00 31 1a 6f 5d 33 40 af a4 33 f2 0e a5 33
       1.8732778e-09 5.155662e-08 7.668723e-08 7.68613e-08
000050 48 cc b3 b4 57 8f 09 b4 14 10 55 b3 8c 4f 9a b4
       -3.3489982e-07 -1.2811266e-07 -4.960755e-08 -2.8742613e-07
000060 b6 0b f9 33 90 23 f3 33 e4 38 5d b3 66 7e cd b4
       1.1597096e-07 1.1322038e-07 -5.1507314e-08 -3.8276193e-07
000070 58 85 86 b4 9f ee fa 34 a5 bc 53 33 07 e2 89 32
       -2.5056465e-07 4.6739748e-07 4.9298837e-08 1.6051684e-08
000080 fc 44 05 b2 aa bc b4 b2 3e 66 82 33 fd 68 ed 32
       -7.757304e-09 -2.1040552e-08 6.0721945e-08 2.7638174e-08
000090 4b 76 21 31 52 e8 8e 33 09 e5 a6 33 e9 54 96 33
       2.3495825e-09 6.654649e-08 7.7716386e-08 7.0003644e-08

exp_avg_sq f4 [40]
000000 0f 5e 90 2e 8d 79 6a 2c 88 e0 93 2c 70 ab 8c 2b
       6.56507e-11 3.3320874e-12 4.2029193e-12 9.995182e-13
000010 15 50 16 2e 79 99 35 2d 42 dc d6 29 f0 7f 4a 2c
       3.417718e-11 1.0322737e-11 9.541718e-14 2.8776946e-12
000020 6e ae bd 2c 44 4a 0a 2e b6 e1 b7 2e 5c 02 76 2c
       5.3910687e-12 3.144353e-11 8.361971e-11 3.4960012e-12
000030 ce 4d ec 2b a9 26 2e 2b 2a 48 94 2e 8d 60 d3 2c
       1.6790404e-12 6.187087e-13 6.74308e-11 6.0077e-12
000040 ef 5d ac 29 7d 7a 49 2c 54 e7 a3 2d e5 20 08 2e
       7.654629e-14 2.8631813e-12 1.8633685e-11 3.0952036e-11
000050 06 97 23 31 06 49 8f 2f 6a 9e f9 2e 25 ec 87 2e
       2.3805469e-09 2.6063435e-10 1.1351349e-10 6.181037e-11
000060 b5 32 39 30 78 6c d3 2e ad 89 15 2e 03 68 3b 2f
       6.7374667e-10 9.614437e-11 3.400096e-11 1.7044503e-10
000070 a2 2d 6b 2f 53 b9 b5 30 79 18 66 2e 0d a0 47 2c
       2.1389338e-10 1.3222156e-09 5.231768e-11 2.8368447e-12
000080 45 62 7c 2c d8 be 3d 2b 2b be d1 2e 01 58 c3 2c
       3.5865904e-12 6.741114e-13 9.538e-11 5.5520037e-12
000090 82 22 02 2a 59 e9 9d 2c 17 7e ac 2d 72 43 df 2d
       1.1558292e-13 4.488115e-12 1.9610131e-11 2.5382117e-11

exp_avg f4 [40]
000000 85 cc 6c 33 a5 5d 98 32 c0 05 2b b2 82 7c e8 b2
       5.513404e-08 1.7737714e-08 -9.954817e-09 -2.7064974e-08
000010 8a c5 db 32 f4 6c 1a 33 25 fd 0f 31 2b 08 62 33
       2.5584786e-08 3.595501e-08 2.0953135e-09 5.2627154e-08
000020 ae cc 2c 33 c5 f4 a2 33 4f d3 8f 33 95 df 96 32
       4.0233026e-08 7.588236e-08 6.697393e-08 1.7563972e-08
000030 8b 95 bd b1 1a 78 a5 b2 43 d4 2a 33 30 2f f5 32
       -5.517625e-09 -1.9263144e-08 3.977426e-08 2.8543212e-08
000040 0d bb 00 31 1a 6f 5d 33 40 af a4 33 f2 0e a5 33
       1.8732778e-09 5.155662e-08 7.668723e-08 7.68613e-08
000050 48 cc b3 b4 57 8f 09 b4 14 10 55 b3 8c 4f 9a b4
       -3.3489982e-07 -1.2811266e-07 -4.960755e-08 -2.8742613e-07
000060 b6 0b f9 33 90 23 f3 33 e4 38 5d b3 66 7e cd b4
       1.1597096e-07 1.1322038e-07 -5.1507314e-08 -3.8276193e-07
000070 58 85 86 b4 9f ee fa 34 a5 bc 53 33 07 e2 89 32
       -2.5056465e-07 4.6739748e-07 4.9298837e-08 1.6051684e-08
000080 fc 44 05 b2 aa bc b4 b2 3e 66 82 33 fd 68 ed 32
       -7.757304e-09 -2.1040552e-08 6.0721945e-08 2.7638174e-08
000090 4b 76 21 31 52 e8 8e 33 09 e5 a6 33 e9 54 96 33
       2.3495825e-09 6.654649e-08 7.7716386e-08 7.0003644e-08

exp_avg_sq f4 [40]
000000 0f 5e 90 2e 8d 79 6a 2c 88 e0 93 2c 70 ab 8c 2b
       6.56507e-11 3.3320874e-12 4.2029193e-12 9.995182e-13
000010 15 50 16 2e 79 99 35 2d 42 dc d6 29 f0 7f 4a 2c
       3.417718e-11 1.0322737e-11 9.541718e-14 2.8776946e-12
000020 6e ae bd 2c 44 4a 0a 2e b6 e1 b7 2e 5c 02 76 2c
       5.3910687e-12 3.144353e-11 8.361971e-11 3.4960012e-12
000030 ce 4d ec 2b a9 26 2e 2b 2a 48 94 2e 8d 60 d3 2c
       1.6790404e-12 6.187087e-13 6.74308e-11 6.0077e-12
000040 ef 5d ac 29 7d 7a 49 2c 54 e7 a3 2d e5 20 08 2e
       7.654629e-14 2.8631813e-12 1.8633685e-11 3.0952036e-11
000050 06 97 23 31 06 49 8f 2f 6a 9e f9 2e 25 ec 87 2e
       2.3805469e-09 2.6063435e-10 1.1351349e-10 6.181037e-11
000060 b5 32 39 30 78 6c d3 2e ad 89 15 2e 03 68 3b 2f
       6.7374667e-10 9.614437e-11 3.400096e-11 1.7044503e-10
000070 a2 2d 6b 2f 53 b9 b5 30 79 18 66 2e 0d a0 47 2c
       2.1389338e-10 1.3222156e-09 5.231768e-11 2.8368447e-12
000080 45 62 7c 2c d8 be 3d 2b 2b be d1 2e 01 58 c3 2c
       3.5865904e-12 6.741114e-13 9.538e-11 5.5520037e-12
000090 82 22 02 2a 59 e9 9d 2c 17 7e ac 2d 72 43 df 2d
       1.1558292e-13 4.488115e-12 1.9610131e-11 2.5382117e-11

exp_avg f4 [4, 10]
000000 8d dc 79 b4 dd 46 8c b3 03 e1 c4 33 47 eb 9f 33
       -2.3270168e-07 -6.532148e-08 9.1678906e-08 7.446811e-08
000010 7a 18 98 34 21 e2 81 34 5e f0 47 af 2d b1 02 b4
       2.8330015e-07 2.4192653e-07 -1.818434e-10 -1.217165e-07
000020 d1 d7 be b4 88 e7 31 34 14 e1 a9 34 af cc e3 33
       -3.5547285e-07 1.656864e-07 3.164247e-07 1.0607743e-07
000030 3c 65 00 b4 2a 2f b8 b3 da c9 cc b4 db e1 b1 b4
       -1.1957758e-07 -8.576747e-08 -3.8144827e-07 -3.313315e-07
000040 c8 58 e4 32 17 c5 27 34 36 ce 01 35 ab 0e 88 b4
       2.6583066e-08 1.5624788e-07 4.835632e-07 -2.5342646e-07
000050 45 e2 91 b3 8f 54 c1 b2 10 1a 12 33 cc aa cc 32
       -6.793247e-08 -2.250661e-08 3.4016978e-08 2.3826395e-08
000060 2f aa bc 33 03 4c a2 33 36 1f 83 b1 f2 29 1e b3
       8.7853884e-08 7.557539e-08 -3.81615e-09 -3.682539e-08
000070 8f c4 fa b3 5c d7 78 33 f3 ae 23 b3 19 03 85 b2
       -1.1677286e-07 5.7937868e-08 -3.811051e-08 -1.5484646e-08
000080 28 52 85 32 e8 3e 1b 32 71 15 43 33 6c 47 31 33
       1.5520598e-08 9.036491e-09 4.5421476e-08 4.127598e-08
000090 2a bf 14 b2 34 f2 84 b2 b2 bd 81 b3 93 7b 1c 33
       -8.6581995e-09 -1.5476964e-08 -6.041536e-08 3.643397e-08
