vlsmt_spec/vlstm_spec.pt (torch, 32674 bytes, 42 tensors)

weight_ih_l0 f4 [20, 32]
000000 df 9b c9 be 56 63 a7 3d d2 fb 9e 3e fb 01 64 bd
       -0.39376733 0.08173244 0.310515 -0.05566595
000010 b9 e8 cd be 89 5a 9d be 7d bb 43 bd 92 bb 51 3b
       -0.40216616 -0.30733135 -0.047786225 0.003200267
000020 0d 8c c4 3e 11 61 d3 bd 08 54 eb 3d 42 92 84 3c
       0.383881 -0.10321248 0.11490637 0.016183022
000030 c9 8f 49 3d 8d 5a 05 be 62 0f bc be 5a b4 10 3e
       0.04920939 -0.13022824 -0.36730486 0.14131299
000040 4c 29 01 3d 51 61 a3 3c f2 8b 84 be 56 88 85 bd
       0.031533524 0.019943865 -0.2588802 -0.06520145
000050 05 d2 72 bc 9c a4 9d be 59 03 5b be 13 22 04 3e
       -0.01482058 -0.3078965 -0.21387996 0.12903623
000060 ff 05 40 3d 0c dc b2 bd 24 c8 fc 3c e3 7e 7f 3d
       0.04688072 -0.08733377 0.030857153 0.062376868
000070 06 26 b2 3e 3a 82 8c be 7e 15 ba 3e 5b 15 c7 3b
       0.34794635 -0.27443105 0.36344522 0.006075544
000080 1e 22 84 bc d1 f6 ba 3e 5a 1f c6 be 03 e1 95 3e
       -0.01612955 0.3651643 -0.38695794 0.29273233
000090 d8 3c 2d 3e 53 cc e3 be d5 5a da be 1d 02 97 3e
       0.16917741 -0.44491825 -0.42647424 0.294938
0000a0 cb 73 b0 be be c0 70 3c c8 05 1d be b0 2a da bd
       -0.34463343 0.014694391 -0.15334237 -0.10652673
0000b0 23 30 0c be 94 95 90 3d 6f fd 04 be 9c 2c d2 be
       -0.13690238 0.0705978 -0.12987302 -0.4104966
0000c0 f9 e6 e2 3e 28 40 5a 3e 24 d6 9e 3d 9b b0 d2 be
       0.44316843 0.21313536 0.07755688 -0.41150364
0000d0 49 bf 83 3e ed 57 8e be f2 4b 29 be a3 9d 3b be
       0.25731876 -0.27801457 -0.16532877 -0.18321852
0000e0 5f 71 a5 3e 33 26 22 3e 75 a0 61 3e 01 eb 34 bd
       0.32313058 0.15834884 0.22033866 -0.04416943
0000f0 b8 90 fd 3c f1 8a 73 3d 40 6d 13 ba 29 23 81 be
       0.030952796 0.059458677 -0.00056238845 -0.25222138
000100 b7 79 6f 3e 70 01 ab 3e 2d d1 68 be fb 11 5b bd
       0.23386274 0.33399534 -0.22736044 -0.053483944
000110 de 62 58 3e c9 8c 9a be 3d 77 b0 be 24 54 5a 3e
       0.21131465 -0.30185536 -0.34465972 0.2132116
000120 bb 6d d3 be 1a bc 8a be 6f 43 b1 3e ae f8 86 3e
       -0.41294655 -0.27096635 0.3462176 0.26361603
000130 93 fe 4e be b6 5c 9c 3e ee 08 90 3d a8 00 7c 3e
       -0.202143 0.30539483 0.07032953 0.24609625
000140 22 80 cb 3d c0 81 5e 3e 72 01 2b be 48 51 d3 3e
       0.09936549 0.21729183 -0.1669977 0.4127295
000150 54 a6 95 bc c7 ac 9f be 31 f8 41 3d 7e 4c d9 be
       -0.018267788 -0.31186506 0.047355834 -0.4244117
000160 89 41 68 be 4d ab e3 be 52 9b 08 3e 86 87 59 3e
       -0.2268125 -0.4446663 0.133405 0.21243104
000170 a7 26 d3 bd f3 ce 91 3e c1 80 be 3c 63 8e aa be
       -0.10310107 0.28478202 0.023254754 -0.33311757
000180 03 6e d5 3e b8 fc c8 3e a0 66 88 be bc 89 51 be
       0.41685495 0.3925531 -0.26640797 -0.20462698
000190 fa 37 e0 bd 08 37 d3 3d 73 85 3e bd b0 60 cd be
       -0.10948177 0.10313231 -0.046513986 -0.4011283
0001a0 e7 e2 e3 be 49 13 3f 3e 8e eb 6c 3d 63 44 50 be
       -0.4450905 0.186597 0.05784183 -0.20338587
0001b0 47 c3 45 3e ae 1e 94 bd 7c 04 c1 3e 10 ae 91 3d
       0.19312774 -0.07232414 0.37698734 0.07113278
0001c0 1e ac df be 26 86 73 3e 81 0b 48 be 48 a2 a3 3e
       -0.43686002 0.23781642 -0.19535638 0.31959748
0001d0 38 92 69 3e 30 73 6e be 45 fc 36 be 4d 05 c5 be
       0.22809684 -0.23286128 -0.1786967 -0.38480607
0001e0 8e 67 5b be 20 f3 43 3e 9a f1 a4 3d e2 41 cf be
       -0.21426222 0.19135714 0.08053894 -0.40479952
0001f0 f3 ef a4 3d a7 5c 5a be dd 97 c9 3e 48 90 b0 3e
       0.08053579 -0.21324407 0.39373675 0.34485078
000200 65 8c 88 3e b3 2c 14 be 4b 84 b5 3e 26 74 90 bd
       0.26669613 -0.14470176 0.35452494 -0.070534036
000210 58 dd c4 3e ea 83 21 3d 0d 2b 77 be d5 87 b3 3e
       0.38450122 0.039432444 -0.24137516 0.3506457
000220 3c bf 1e 3e 8b 0b c7 3d f1 2b 83 3e 21 3c bc be
       0.15502638 0.097189985 0.25619462 -0.36764625
000230 6f 34 65 3c aa 48 e1 b9 f2 62 e5 3c 81 00 11 be
       0.013989552 -0.00042969483 0.028001282 -0.14160348
000240 02 cb 37 bd 30 ba 94 3e f7 ed f0 bd e4 cb a3 3d
       -0.044871338 0.290483 -0.11764138 0.079978734
000250 dd 8e b6 be 11 2b 53 be ab 79 a6 3a 46 d2 75 bd
       -0.3565587 -0.20621897 0.0012701055 -0.060014986
000260 61 3d 27 bd 7a 8b c7 be 7f 10 32 be aa e7 5a bc
       -0.04083002 -0.389736 -0.17389105 -0.013360897
000270 0b 9f c0 be 6f 83 a5 be d0 7a 88 bd a3 62 b2 3e
       -0.3762134 -0.32326838 -0.066640496 0.3484088
000280 bd 59 80 3e ca 57 86 3d 87 74 29 3e c0 0d 09 3e
       0.25068465 0.06559713 0.16548358 0.13384151
000290 d4 ef a3 3e dc 48 d1 3d b8 86 b4 bd e9 92 47 be
       0.32018912 0.10218975 -0.08814758 -0.19489636
0002a0 a7 89 44 3d d1 e5 23 3e 23 ef a5 be b0 da 65 be
       0.047982838 0.16005637 -0.3240901 -0.22446704
0002b0 3b 2a e4 3d 42 54 d5 3e 96 c0 e4 3e 5c e6 a1 3e
       0.11140867 0.41665846 0.4467818 0.31621063
0002c0 6d 62 4c bc d4 f5 99 3a 78 36 94 be 8d 20 5e 3d
       -0.012474638 0.0011746236 -0.28947806 0.05423026
0002d0 13 6f cd be 7f d2 ba 3e 01 03 5d bd 7d 3d c9 3e
       -0.40123805 0.3648872 -0.053957943 0.39304724
0002e0 03 82 c9 be 32 ef bf 3e 1b 78 b3 be a2 12 9b be
       -0.39357004 0.3748718 -0.3505257 -0.30287653
0002f0 4a 8e e0 be 95 95 48 3e 8b 64 9f be 7b 78 b2 be
       -0.43858558 0.19588311 -0.31131396 -0.34857544
000300 02 2a 09 3e 1f 69 c6 bd 42 e5 ba 3e e1 fc e1 3e
       0.13394931 -0.09688019 0.36503035 0.44138244
000310 12 b9 ad be 65 93 54 be bf 7a 92 3c 9c 83 75 be
       -0.3393026 -0.20759352 0.017880796 -0.23975986
000320 7b 94 af be 64 42 61 be e7 2a f3 3c 91 cd 95 be
       -0.3429297 -0.21997982 0.029683543 -0.29258397
000330 cf 8c 8a 3e 06 b8 b4 3c ed d5 41 3e 55 12 d0 3e
       0.27060553 0.022060405 0.18929262 0.40638986
000340 e3 5a e3 be 23 99 a4 3e c6 14 61 3e a2 f5 29 bc
       -0.4440528 0.32148084 0.2198058 -0.010373505
000350 d9 83 13 3e 49 a1 eb 3d 9f a3 f2 3c 34 5c d2 3e
       0.14405765 0.11505372 0.029619036 0.4108597
000360 bc c1 25 be 4d d0 45 be af b9 c7 be ac bc 9b 3d
       -0.16187185 -0.19317742 -0.39008853 0.07604346
000370 77 ba 81 be 68 7c 97 bd ea 4a 1b 3e 55 b0 a7 3e
       -0.25337574 -0.073967755 0.15165296 0.32751718
000380 50 74 5b 3e ec 38 ab 3e 70 98 8e 3e 62 d2 08 3e
       0.21431088 0.33441865 0.27850676 0.13361505
000390 d5 0a a1 3e e1 9f be be d3 64 70 3e 23 93 1b 3e
       0.31453577 -0.37231353 0.23475961 0.15192847
0003a0 c3 5c 95 bd 4b 6e c6 bd 0c 07 48 be 96 c3 a5 be
       -0.072930835 -0.096890055 -0.19533938 -0.32375783
0003b0 32 17 c1 3e b2 b8 72 3d 65 2c 3d 3e 9e 6a c6 be
       0.3771301 0.05925817 0.18473966 -0.38753217
0003c0 66 44 0b 3e 1c 4d b7 be e1 87 6a 3d 1c 41 3e 3e
       0.1360031 -0.35801017 0.05725849 0.18579525
0003d0 1a 1b cf 3d e7 77 4b 3e ca 7e c2 be a8 62 b2 3d
       0.10112591 0.19869958 -0.37987357 0.087102234
0003e0 02 3e ca 3e 0d d0 99 3e f1 f2 94 3e a1 94 19 3e
       0.39500433 0.30041543 0.290916 0.14998104
0003f0 d2 98 dd 3e 7d 3e 32 bd 70 38 9b 3d da 0c f2 bd
       0.43280655 -0.043516625 0.07579124 -0.118188575

weight_hh_l0 f4 [20, 5]
000000 87 69 af 3d 3b 77 26 3c 83 d1 28 be 71 19 0f be
       0.085650496 0.010160263 -0.16486172 -0.13974549
000010 c0 72 3b 3c f0 84 50 be 06 6e 2a 3e 43 4e a0 3e
       0.011440933 -0.20363212 0.16643533 0.3130971
000020 1d 11 d1 bd 03 79 8e 3e a6 dc 7f bd 99 34 19 3e
       -0.10208342 0.278267 -0.062466286 0.1496147
000030 8d 55 78 3e 00 de 4d bd fd dd fa bd 10 02 49 be
       0.24251385 -0.050260544 -0.12249372 -0.19629693
000040 9f a2 a4 be 4e f5 03 bf a5 59 dc 3e 83 a8 89 3d
       -0.3215532 -0.5154618 0.43037143 0.06721594
000050 00 8f 35 bd 8d ec 14 be f4 ad e4 3d fc 29 d5 be
       -0.04432583 -0.14543362 0.111659914 -0.41633594
000060 99 5c 06 3d b1 5f 5d 3e 42 cc c3 3d b4 ae 2b 3d
       0.03280315 0.21618535 0.095604435 0.041914657
000070 34 6c b8 3e 8a 37 ab be 2e 9a 11 be af e7 ef 3e
       0.36020052 -0.3344081 -0.14218971 0.46856448
000080 30 f6 87 3e e3 ed 02 bf 2a 46 97 3e 86 cb 22 be
       0.26555014 -0.51144236 0.29545718 -0.1589795
000090 da d5 20 bc cf 4c a2 3d 2a ff e7 3e ac 7b 63 be
       -0.009816611 0.07924806 0.45311862 -0.22215146
0000a0 50 b2 49 3e 89 88 92 be 1d ed 72 3d 9e b2 38 3e
       0.19696927 -0.28619793 0.05930816 0.18036887
0000b0 33 86 4f be 20 71 b7 3e 1b 31 83 3e 26 05 92 be
       -0.20266037 0.35828495 0.25623402 -0.28519553
0000c0 cd 43 28 3e d2 b0 11 bd 56 7c 05 3e 6b 0c ac be
       0.16432114 -0.03556902 0.13035712 -0.33603224
0000d0 9b cc 8d 3e f2 b9 ff 3e 16 31 be bd e4 57 85 be
       0.27695164 0.49946553 -0.09286706 -0.26043618
0000e0 c2 56 88 3e 5f 75 09 3e b9 c6 1b 3e 2e be 99 be
       0.2662869 0.1342368 0.15212525 -0.30027908
0000f0 f6 47 6f 3d 7f d3 14 be 4f 60 94 bd ef ea 97 be
       0.058418237 -0.14533804 -0.07244932 -0.29671428
000100 b4 2c 0b 3f 38 3b 0e be 9e 32 51 3d b4 bc cc be
       0.54365087 -0.13889778 0.051073663 -0.3998772
000110 67 aa 1a be 96 17 e6 be a9 96 99 be 0a 55 ab 3e
       -0.15104066 -0.4493987 -0.29997757 0.33463317
000120 6d f0 1a bc 15 fa cf 3e 13 92 2b 3d 7e 5c 98 3e
       -0.009456736 0.40620485 0.041887354 0.29758066
000130 a4 ad 40 3d 98 8b 74 bd e7 25 8e 3e fc 1b 13 3e
       0.047040597 -0.05970344 0.27763292 0.14366144
000140 47 d9 12 be 48 ab d1 bd 2a 28 ec 3e ec 8e 07 bf
       -0.14340697 -0.102377474 0.46124393 -0.52952456
000150 8b ce d1 3e 53 cd 83 3c 79 36 d1 be 7f 35 41 3e
       0.40977892 0.016089117 -0.40861872 0.18868063
000160 4d b2 01 be 6b cd 85 bc d3 94 08 be c0 6a 99 be
       -0.12665673 -0.016333302 -0.13338022 -0.29964256
000170 43 a5 64 3e d3 07 3f 3e 1f e6 63 be f4 66 13 3e
       0.22328667 0.18655328 -0.22255753 0.14394742
000180 3a 30 a4 3e b3 c1 9b be 8c a4 d2 be 18 57 3f 3e
       0.32068044 -0.30421218 -0.41141164 0.18685567

bias_ih_l0 f4 [20]
000000 08 8d 0e 3e f6 06 a6 3e 20 06 fc 3e 8b 36 64 3e
       0.13920987 0.32427186 0.49223423 0.22286431
000010 57 68 fc bd e6 03 c4 be 03 89 3b be c4 ed 02 3f
       -0.12324589 -0.38284224 -0.18313985 0.5114405
000020 6a e6 ab 3e 9f 48 ea be 93 fa 45 3e 48 f0 cc bd
       0.3357423 -0.4575853 0.19333868 -0.100067675
000030 60 f7 82 bd 03 0d dc 3e 54 2c 1f bd b2 0d e3 3d
       -0.06394839 0.42978677 -0.038860634 0.110865965
000040 25 28 ad be b0 64 0a 3f b0 02 b2 3e ed 91 47 3e
       -0.3381969 0.54059887 0.34767675 0.1948926

bias_hh_l0 f4 [20]
000000 eb 76 d0 3d 5f 23 c6 be 42 45 54 3e 4c ef fe bd
       0.10178932 -0.3869886 0.20729545 -0.12447986
000010 c1 65 8f be 55 60 59 3e b9 8d 82 be 37 76 14 3f
       -0.2800732 0.21228154 -0.2549875 0.5799288
000020 6d 4a 84 3e 6f e1 a5 be f2 fe 52 3e 8f 00 44 bd
       0.25838032 -0.32398555 0.20605066 -0.047852095
000030 97 3e cc be f3 a5 3a be b3 dc b4 be 55 3d 53 be
       -0.39891502 -0.18227367 -0.3532463 -0.20628865
000040 0b f5 7f bd bc 0b 45 be 45 0d 13 3f 89 e6 a6 3e
       -0.06248955 -0.19242758 0.5744212 0.3259776

weight f4 [4, 5]
000000 84 95 37 3e 37 83 2e 3e a3 b4 3d 3e ba a8 c0 3d
       0.1792813 0.17042242 0.18525939 0.09407182
000010 43 b4 81 be eb c3 51 3d 7d 63 2f 3e ec 67 95 be
       -0.2533284 0.051212233 0.17127796 -0.2918085
000020 b6 66 11 3d 0a f9 e4 3d 2b 06 4a bd bb a8 5e 3d
       0.035498343 0.11180313 -0.04932229 0.054360133
000030 a3 20 8a 3e db cc b9 bb 52 d6 8b be ad 20 c3 be
       0.26978025 -0.0056701726 -0.2731195 -0.38110867
000040 74 e0 4e be c0 79 2b be 3f 54 99 3e 8f aa ab 3e
       -0.2020281 -0.16745663 0.29947087 0.33528563

bias f4 [4]
000000 bd 9f cb bc 48 71 28 be 53 16 fe 3d 7a 64 99 bd
       -0.024856443 -0.16449463 0.12406602 -0.074898675

weight f4 [4, 5]
000000 73 a9 6f 3e 02 1d 72 3c 68 17 cf be 63 d1 8a be
       0.23404483 0.014777424 -0.40447545 -0.27112874
000010 f3 0e 96 be 6e 33 a9 3e 57 91 bb 3b 50 7c 8b 3d
       -0.2930828 0.3304705 0.005724113 0.0681082
000020 26 b1 ae be d6 c4 e5 3e f7 be c2 be e3 ec 42 3d
       -0.3411953 0.44876736 -0.3803632 0.047589194
000030 59 97 b5 be 71 07 b8 bd fd 9c 70 3e c9 6f 08 3e
       -0.35467032 -0.08985794 0.23497386 0.13323893
000040 7a 6c 0c 3d fd e8 13 3e 8e 87 21 3f be 8d de be
       0.03428314 0.14444347 0.63097465 -0.43467516

bias f4 [4]
000000 a7 9b 3f be 9a 68 02 3e e1 e0 1f bc 52 ab 93 be
       -0.1871172 0.12735215 -0.009758205 -0.28841645

weight_ih_l0 f4 [20, 4]
000000 c3 b1 cc 3d dd e4 54 be 85 8e 09 bd 25 3a b0 3e
       0.09994843 -0.2079043 -0.033583183 0.3441936
000010 8a 67 55 be 1f 4b 6f 3d 29 18 42 be 7a 17 39 be
       -0.20840278 0.05842125 -0.18954529 -0.18075362
000020 a8 b8 95 3e 54 15 09 3e cf 03 a5 be 66 a3 38 bd
       0.29242444 0.13387042 -0.32229468 -0.045077704
000030 e3 2d 21 be 25 50 46 3e 8b cf 84 3e a6 48 1b 3e
       -0.1574016 0.1936651 0.25939593 0.15164432
000040 11 4c c7 bd 99 2e 90 be 76 4c 96 be b9 16 db be
       -0.097313054 -0.2816055 -0.2935521 -0.42790774
000050 61 3d 7f 3e c3 44 51 be d3 9b e9 bc a6 9f 77 be
       0.24925758 -0.20436387 -0.028516686 -0.24181995
000060 d7 07 25 be d3 0f 0d 3e 56 c0 48 3e e3 b5 79 bd
       -0.16116272 0.13775568 0.1960462 -0.060964476
000070 30 2b bd be fd c2 5f 3d 47 f4 95 be 0a ec 59 bc
       -0.36947012 0.054629315 -0.2928793 -0.013300905
000080 ed 85 3b be db ae 69 3e 69 69 9f bd be c6 89 3e
       -0.18312807 0.22820608 -0.07783777 0.2690944
000090 da 7d 81 3e 8a 81 75 3e 62 ae e8 3e 79 0e be be
       0.2529133 0.23975196 0.45445544 -0.37120417
0000a0 9c a2 35 bc 9d aa 00 be 21 28 2d 3e a9 68 04 3d
       -0.011086132 -0.12565084 0.16909839 0.032326374
0000b0 29 dd 15 3e f9 94 0b 3e 76 cb 00 3d a7 60 fb bd
       0.14635147 0.13631047 0.031444035 -0.12274294
0000c0 5d d9 88 be cb 19 d4 bd db 96 2a 3e 09 e0 5c 3e
       -0.26728335 -0.10356482 0.1665911 0.21569838
0000d0 a9 77 57 be 44 75 1a be 1e ab 31 3e 4a ee b9 3d
       -0.2104174 -0.15083796 0.17350432 0.09078653
0000e0 8d 9d 03 be c3 aa 0b 3e fb e8 43 3b 41 c3 6b be
       -0.1285307 0.13639359 0.0029893506 -0.23023702
0000f0 5a eb 01 be aa 7c 81 3b 3f 92 40 3d 7a 4b ac 3e
       -0.12687436 0.0039516287 0.04701447 0.33651334
000100 eb 8a 6c 3d 9e 92 2d 3e 1b 21 36 3d fb 3d 1e be
       0.05774967 0.16950461 0.044465166 -0.15453331
000110 3d ee 41 3e e2 db f0 bd 31 8f 98 3d b2 61 d4 3d
       0.18938537 -0.11760689 0.074491866 0.103701964
000120 91 78 7c bd 28 3c 43 bd c0 cd 69 3e 6c fb ac 3c
       -0.06163842 -0.04766479 0.22832394 0.021115981
000130 24 8e f5 bd ac 34 25 3e 57 7e a4 be 96 94 e6 3e
       -0.11990002 0.16133374 -0.3212764 0.45035237

weight_hh_l0 f4 [20, 5]
000000 14 fe 55 3e eb 5f bf 3d 8c 3c a0 be 63 0f 56 3e
       0.20897704 0.09344467 -0.31296194 0.20904307
000010 40 68 c9 be 79 a3 d6 be 91 ea 87 be d4 14 21 be
       -0.3933735 -0.41921595 -0.26546147 -0.15730602
000020 2d 94 6b 3e 86 f0 b3 bd a3 59 a2 bc cc 0d e6 bc
       0.23005743 -0.087861106 -0.019818133 -0.02808275
000030 04 9e ec be 46 9a c2 3e 47 d3 8a 3e b7 6f c7 3d
       -0.46214306 0.38008326 0.27114317 0.09738105
000040 16 37 5a 3d 04 9e 20 bd 9a 8f 38 bd d8 3f 43 be
       0.05327519 -0.039213195 -0.045058824 -0.19067323
000050 7b 60 e2 bd cb 76 86 bd fb 6a 8e 3d be ea 84 3e
       -0.110535584 -0.06565627 0.06953999 0.25960344
000060 91 54 92 3e f1 42 33 be 0a 99 40 3d fa e4 b0 bd
       0.28580144 -0.17506005 0.04702095 -0.08637424
000070 f7 cb 28 3e 4e 75 15 3d 47 fc 82 39 7d cf ea be
       0.16484056 0.036488824 0.00024983493 -0.45861426
000080 12 f2 02 be 1f 98 4c be 83 69 c2 bd bd 6b c8 bd
       -0.12787655 -0.19979905 -0.09492781 -0.097861744
000090 da 19 92 3e fe e2 4b be 29 96 e2 3e 82 dd 54 bc
       0.28535348 -0.1991081 0.44255188 -0.012992265
0000a0 23 3e 90 3c 24 6e f6 be 25 0c 7a 3d 05 09 17 3e
       0.017607754 -0.48130906 0.06104674 0.14749534
0000b0 d8 fd 67 3e 23 c2 de 3e 5b 5c 24 3f ef 35 5a 3e
       0.22655427 0.4350749 0.64203423 0.21309637
0000c0 ec 0f 67 be 60 b0 c5 3e a1 3d f4 3e 75 81 73 3e
       -0.22564667 0.38611126 0.4770327 0.23779853
0000d0 66 ae 81 bc 99 e7 1c bf 69 ce 15 3f ef ff ae 3c
       -0.01583023 -0.6129089 0.5851808 0.021362273
0000e0 40 88 8e 3e 58 a3 56 3d 71 ee b6 3d 20 54 98 3d
       0.27838326 0.05240187 0.08932198 0.074379206
0000f0 35 10 30 3f 03 4a 35 3f 7e 6f 06 3e 77 f8 0b bf
       0.6877473 0.7081606 0.13128468 -0.54676
000100 5f a0 0b 3f 75 af a2 be ea 61 ad be d6 3f 3a bf
       0.5454158 -0.31774488 -0.33863765 -0.72753656
000110 62 b8 dd 3e 33 6c 19 3d c3 7e 16 bf 1b 10 b0 3e
       0.43304735 0.037456702 -0.58787173 0.34387287
000120 92 4d 8d 3d 18 e8 20 3c 06 be ee be 85 20 8c 3e
       0.06899561 0.00982096 -0.4662935 0.2736856
000130 79 74 0e bf 6f af 2c be 41 10 ab be 08 28 8b be
       -0.55646473 -0.16863798 -0.33410838 -0.2717898
000140 72 73 80 3d 04 a7 b4 be 33 cd 73 3e e5 b1 dc bd
       0.062720194 -0.35283673 0.23808746 -0.10776118
000150 b8 34 66 bd 61 2d ed bb 33 7a 16 bf b3 41 df be
       -0.05620262 -0.0072380756 -0.5878021 -0.43604812
000160 5d cd f8 3d 08 ad cb 3d b5 f9 df be c7 06 14 bf
       0.12148545 0.099451125 -0.437452 -0.5782284
000170 ff f6 a6 be fa 0c f4 3b 70 94 99 3e 75 df ee bd
       -0.32610318 0.007447836 0.2999606 -0.11663715
000180 2c a8 52 3e ee d1 07 3f 56 aa e6 3c 50 f7 f9 3d
       0.20571965 0.530547 0.028157394 0.12205374

bias_ih_l0 f4 [20]
000000 84 e4 13 3f 62 23 d6 3d 31 9e 03 3f f7 a9 f1 3e
       0.5777056 0.104559675 0.51413256 0.47199985
000010 69 ad 12 be d9 32 61 be 88 b7 32 3d c2 66 5f 3e
       -0.14323963 -0.21992053 0.04363206 0.21816543
000020 1a c6 46 3e 9f 13 84 3d c5 3a f3 be 29 79 d6 be
       0.19411507 0.06449055 -0.47505775 -0.41889313
000030 20 9c a9 be d4 87 a0 3e da 13 84 be 77 1b 35 3e
       -0.33126926 0.3135363 -0.25796396 0.17686258
000040 b8 77 14 3f 4d 75 74 3c f0 97 9b 3e 5b 51 87 3e
       0.57995176 0.014920545 0.30389357 0.26429257

bias_hh_l0 f4 [20]
000000 3b 94 42 be 18 0b 82 3e 50 20 27 3e de 45 27 3f
       -0.19001858 0.2539909 0.1632092 0.65340984
000010 78 4f 2a 3e 83 a1 7f bd 39 32 25 be 13 14 16 3f
       0.16631877 -0.06240989 -0.1613244 0.5862438
000020 bf 7a d9 3e d8 4d 50 3e 46 29 8d be 8f a1 42 bf
       0.4247646 0.20342195 -0.27570552 -0.7602777
000030 0f 61 89 be 83 ec d7 3e 28 51 35 be 1e 5b 05 bd
       -0.26831862 0.42172632 -0.1770674 -0.0325576
000040 69 2e 80 be af 4f c0 3e d0 5d 08 3f e6 c4 f5 be
       -0.25035408 0.37560794 0.53268147 -0.48001784

weight f4 [32, 5]
000000 68 0b d6 bd 46 0a 13 3d 12 de a6 be a3 be 0d 3f
       -0.10451394 0.03589847 -0.325913 0.55369014
000010 94 b1 e5 3d 22 2f c6 be 4d de a5 be c6 1e 16 bf
       0.11215511 -0.38707834 -0.32396165 -0.58640707
000020 56 1b 46 3e 47 7e 32 3c 77 e3 b4 be 0b 37 22 bf
       0.19346365 0.010894365 -0.35329792 -0.6336524
000030 87 3d d2 be 5f b6 00 be 56 79 98 bd 7b 91 aa bd
       -0.41062567 -0.12569569 -0.07445018 -0.083285294
000040 16 a7 8e bd ce de 55 bd f1 5f fb 3d 93 7b aa be
       -0.06965463 -0.052214436 0.12274159 -0.33297405
000050 78 d0 46 3c 96 47 5d be f6 36 81 3e e0 18 69 3e
       0.012134664 -0.21609339 0.25237244 0.22763395
000060 28 b3 c8 39 b7 2b 10 be 40 6d 88 be 8b e9 c6 3d
       0.00038280454 -0.14079176 -0.2664585 0.097125135
000070 ab 3b e6 bd af 84 b7 bd a0 80 6d be ad ea 8f be
       -0.112418495 -0.08960854 -0.23193598 -0.2810873
000080 bb 2e a8 be 0e 8e 0f 3e e3 ff 6e be 8d 9b 9f 3e
       -0.32848153 0.14019033 -0.233398 0.31173363
000090 70 d3 02 3e f9 5c c2 be fa d8 a8 3e fe 45 12 bd
       0.1277597 -0.37961558 0.3297804 -0.03571128
0000a0 f0 ed 8b 3e 4d 4b 8c bd 4d 2a 0a 3d 19 7d 03 3e
       0.2732997 -0.068503 0.033731747 0.1284069
0000b0 31 1a d9 be 92 aa 07 be 07 5f 0c be 97 2b 77 bd
       -0.42402795 -0.13248661 -0.13708125 -0.060344305
0000c0 16 ea 18 3e 6b 95 a0 bd 7f 4a 0e bd 35 95 78 3e
       0.14933047 -0.07840999 -0.034739014 0.24275668
0000d0 b0 93 b2 bd a0 0d 43 bd 70 4d b9 3e 3c 51 24 be
       -0.087195754 -0.047620416 0.36191893 -0.16046613
0000e0 ae 33 ad bd 23 79 7e bc 10 05 00 be 29 47 61 3c
       -0.08457123 -0.015531811 -0.12501931 0.013749876
0000f0 5e 55 ec 3c 4a d6 ce 3d 81 a0 c9 bd e6 c0 c6 bd
       0.0288493 0.10099466 -0.09845067 -0.09704761
000100 8e b0 6d 3e f7 28 97 3e c0 55 36 be e5 8e fe bd
       0.23211882 0.2952344 -0.17806149 -0.12429599
000110 7e 6a 2c 3e af 12 fc be fe 44 5d 3d d3 74 c9 bd
       0.16837499 -0.49233004 0.054020874 -0.098367356
000120 7d 42 03 bd 9e 6e 8c bd f0 78 8f be dc 86 02 3d
       -0.03204583 -0.06857036 -0.28021955 0.031866893
000130 9f 1b 78 bc 05 d2 a0 3d 16 5d 30 3e de 57 84 be
       -0.015143304 0.07852558 0.1722301 -0.25848287
000140 74 20 8c be ff b1 9a be 53 0c 3d 3e 1e fe 92 bd
       -0.2736851 -0.30213925 0.18461733 -0.07177375
000150 4e d6 14 bd 9c 34 df bd 93 64 67 3e 8a 2d 8d 3d
       -0.03633719 -0.10898706 0.2259696 0.068934515
000160 78 8f 8b 3d bf 50 04 3e d0 90 55 3e 91 71 83 bd
       0.06814474 0.12921427 0.20856023 -0.064181454
000170 47 9a 67 bc b9 a9 55 be 46 8b b6 bd 82 fc 87 bd
       -0.014135904 -0.20865525 -0.08913283 -0.06639959
000180 43 3f 6d 3d 6f aa 45 bc 40 c0 61 bd 6c 03 2e 3e
       0.05792166 -0.01206456 -0.055114985 0.16993493
000190 52 e7 d3 3d 52 bb e4 bd a4 5f 8d bd b8 5d 1d 3e
       0.10346855 -0.11168541 -0.069030076 0.15367782
0001a0 a3 8f a7 be 0e 14 40 3e dc 15 d9 3d 44 54 aa be
       -0.32726774 0.1875765 0.105998725 -0.33267415
0001b0 0c c3 bb 3b 56 5e 7a 3d de 64 23 be 70 26 4b 3d
       0.0057300385 0.061125122 -0.15956447 0.049597204
0001c0 07 94 6f 3d c5 be 7c bc 55 bd 55 3e 07 56 f1 bd
       0.05849078 -0.015426342 0.20873006 -0.117839865
0001d0 d3 8d 36 bc 39 a4 19 3e a2 04 52 bd e5 48 80 3d
       -0.011142212 0.15004052 -0.05127395 0.062639035
0001e0 52 0c a7 bd b0 32 b7 bc 57 ad 18 3e b7 63 90 bd
       -0.08156647 -0.022363037 0.14909874 -0.07050269
0001f0 05 37 99 ba d9 b7 5f bc 82 e4 b9 bd f1 bc bf bd
       -0.0011689371 -0.013654673 -0.090767875 -0.093622096
000200 fd 74 8e bd cb 32 34 bd 62 70 02 3e 2f 70 28 be
       -0.069559075 -0.043993752 0.12738183 -0.16449045
000210 9f cd 65 bd f6 2e 83 3c c5 b3 af be 93 6e 07 bd
       -0.0561043 0.016013604 -0.3431684 -0.033064436
000220 74 0a 22 bd 04 0c 18 be 3c 88 11 3e 64 9b 73 3d
       -0.03956075 -0.14848334 0.14212126 0.059474364
000230 f4 cf 09 3e 42 22 69 bb ad eb a9 bd c3 3c 89 3d
       0.13458234 -0.0035573398 -0.08296905 0.067010425
000240 02 09 08 be 8d c8 c1 3e ca 91 8d 3e 9f ae 59 bd
       -0.13284686 0.3784832 0.2765029 -0.053145047
000250 89 2f 42 3d 0c 44 f7 3c 01 10 f2 be 23 56 73 be
       0.047408614 0.030183814 -0.47277835 -0.23763327
000260 d0 86 b1 3d 7c e7 44 3c 16 39 3b 3e c3 cf 81 3c
       0.086682916 0.012018081 0.18283495 0.015846139
000270 21 b6 25 3d ff 79 2f bc 2b 8b cf bc 47 c0 87 3d
       0.040456895 -0.0107102385 -0.025334915 0.06628471

bias f4 [32]
000000 9e 37 f2 3d cd 98 c9 3e 11 eb 91 3e ca f9 cd 3e
       0.118270144 0.3937439 0.28499654 0.40229636
000010 f2 66 f7 3e 10 0b d8 3e f6 97 9c be d2 b3 d9 bd
       0.4832073 0.4219594 -0.30584687 -0.10630001
000020 88 0c 48 3e 30 4d 04 be e8 df 7f 3e 8d 59 d0 3d
       0.1953603 -0.1292007 0.24987757 0.101733305
000030 5b a7 4c 3e 28 87 01 be cd a3 89 3d 10 c5 17 bc
       0.19985716 -0.12649214 0.06720696 -0.009263292
000040 66 c1 db bb c3 39 ec 3d f5 12 82 3e 82 11 a3 3d
       -0.0067064045 0.11534455 0.25405088 0.07962324
000050 57 b7 30 be 59 f1 a9 bd 4c 83 4e 3d 0a 11 fa 3d
       -0.17257439 -0.082979865 0.050418183 0.12210281
000060 1e 92 0d 3e 51 8f 39 bd 0c ec a8 bd 81 10 70 be
       0.1382527 -0.045302693 -0.08248147 -0.23443796
000070 d4 bf 4a bd 9e fc 71 3e 84 cb 72 be a0 99 60 3d
       -0.049499348 0.23631522 -0.23710448 0.05483401

exp_avg f4 [20, 32]
000000 00 00 00 00 00 00 00 00 00 00 00 00 00 00 00 00
       0.0 0.0 0.0 0.0
000010 00 00 00 00 00 00 00 00 00 00 00 00 00 00 00 00
       0.0 0.0 0.0 0.0
000020 00 00 00 00 00 00 00 00 00 00 00 00 00 00 00 00
       0.0 0.0 0.0 0.0
000030 00 00 00 00 00 00 00 00 00 00 00 00 00 00 00 00
       0.0 0.0 0.0 0.0
000040 00 00 00 00 00 00 00 00 00 00 00 00 00 00 00 00
       0.0 0.0 0.0 0.0
000050 00 00 00 00 00 00 00 00 00 00 00 00 00 00 00 00
       0.0 0.0 0.0 0.0
000060 00 00 00 00 00 00 00 00 00 00 00 00 00 00 00 00
       0.0 0.0 0.0 0.0
000070 00 00 00 00 00 00 00 00 00 00 00 00 00 00 00 00
       0.0 0.0 0.0 0.0
000080 00 00 00 00 00 00 00 00 00 00 00 00 00 00 00 00
       0.0 0.0 0.0 0.0
000090 00 00 00 00 00 00 00 00 00 00 00 00 00 00 00 00
       0.0 0.0 0.0 0.0
0000a0 00 00 00 00 00 00 00 00 00 00 00 00 00 00 00 00
       0.0 0.0 0.0 0.0
0000b0 00 00 00 00 00 00 00 00 00 00 00 00 00 00 00 00
       0.0 0.0 0.0 0.0
0000c0 00 00 00 00 00 00 00 00 00 00 00 00 00 00 00 00
       0.0 0.0 0.0 0.0
0000d0 00 00 00 00 00 00 00 00 00 00 00 00 00 00 00 00
       0.0 0.0 0.0 0.0
0000e0 00 00 00 00 00 00 00 00 00 00 00 00 00 00 00 00
       0.0 0.0 0.0 0.0
0000f0 00 00 00 00 00 00 00 00 00 00 00 00 00 00 00 00
       0.0 0.0 0.0 0.0
000100 00 00 00 00 00 00 00 00 00 00 00 00 00 00 00 00
       0.0 0.0 0.0 0.0
000110 00 00 00 00 00 00 00 00 00 00 00 00 00 00 00 00
       0.0 0.0 0.0 0.0
000120 00 00 00 00 00 00 00 00 00 00 00 00 00 00 00 00
       0.0 0.0 0.0 0.0
000130 00 00 00 00 00 00 00 00 00 00 00 00 00 00 00 00
       0.0 0.0 0.0 0.0
000140 00 00 00 00 00 00 00 00 00 00 00 00 00 00 00 00
       0.0 0.0 0.0 0.0
000150 00 00 00 00 00 00 00 00 00 00 00 00 00 00 00 00
       0.0 0.0 0.0 0.0
000160 00 00 00 00 00 00 00 00 00 00 00 00 00 00 00 00
       0.0 0.0 0.0 0.0
000170 00 00 00 00 00 00 00 00 00 00 00 00 00 00 00 00
       0.0 0.0 0.0 0.0
000180 00 00 00 00 00 00 00 00 00 00 00 00 00 00 00 00
       0.0 0.0 0.0 0.0
000190 00 00 00 00 00 00 00 00 00 00 00 00 00 00 00 00
       0.0 0.0 0.0 0.0
0001a0 00 00 00 00 00 00 00 00 00 00 00 00 00 00 00 00
       0.0 0.0 0.0 0.0
0001b0 00 00 00 00 00 00 00 00 00 00 00 00 00 00 00 00
       0.0 0.0 0.0 0.0
0001c0 00 00 00 00 00 00 00 00 00 00 00 00 00 00 00 00
       0.0 0.0 0.0 0.0
0001d0 00 00 00 00 00 00 00 00 00 00 00 00 00 00 00 00
       0.0 0.0 0.0 0.0
0001e0 00 00 00 00 00 00 00 00 00 00 00 00 00 00 00 00
       0.0 0.0 0.0 0.0
0001f0 00 00 00 00 00 00 00 00 00 00 00 00 00 00 00 00
       0.0 0.0 0.0 0.0
000200 00 00 00 00 00 00 00 00 00 00 00 00 00 00 00 00
       0.0 0.0 0.0 0.0
000210 00 00 00 00 00 00 00 00 00 00 00 00 00 00 00 00
       0.0 0.0 0.0 0.0
000220 00 00 00 00 00 00 00 00 00 00 00 00 00 00 00 00
       0.0 0.0 0.0 0.0
000230 00 00 00 00 00 00 00 00 00 00 00 00 00 00 00 00
       0.0 0.0 0.0 0.0
000240 00 00 00 00 00 00 00 00 00 00 00 00 00 00 00 00
       0.0 0.0 0.0 0.0
000250 00 00 00 00 00 00 00 00 00 00 00 00 00 00 00 00
       0.0 0.0 0.0 0.0
000260 00 00 00 00 00 00 00 00 00 00 00 00 00 00 00 00
       0.0 0.0 0.0 0.0
000270 00 00 00 00 00 00 00 00 00 00 00 00 00 00 00 00
       0.0 0.0 0.0 0.0
000280 00 00 00 00 00 00 00 00 00 00 00 00 00 00 00 00
       0.0 0.0 0.0 0.0
000290 00 00 00 00 00 00 00 00 00 00 00 00 00 00 00 00
       0.0 0.0 0.0 0.0
0002a0 00 00 00 00 00 00 00 00 00 00 00 00 00 00 00 00
       0.0 0.0 0.0 0.0
0002b0 00 00 00 00 00 00 00 00 00 00 00 00 00 00 00 00
       0.0 0.0 0.0 0.0
0002c0 00 00 00 00 00 00 00 00 00 00 00 00 00 00 00 00
       0.0 0.0 0.0 0.0
0002d0 00 00 00 00 00 00 00 00 00 00 00 00 00 00 00 00
       0.0 0.0 0.0 0.0
0002e0 00 00 00 00 00 00 00 00 00 00 00 00 00 00 00 00
       0.0 0.0 0.0 0.0
0002f0 00 00 00 00 00 00 00 00 00 00 00 00 00 00 00 00
       0.0 0.0 0.0 0.0
000300 00 00 00 00 00 00 00 00 00 00 00 00 00 00 00 00
       0.0 0.0 0.0 0.0
000310 00 00 00 00 00 00 00 00 00 00 00 00 00 00 00 00
       0.0 0.0 0.0 0.0
000320 00 00 00 00 00 00 00 00 00 00 00 00 00 00 00 00
       0.0 0.0 0.0 0.0
000330 00 00 00 00 00 00 00 00 00 00 00 00 00 00 00 00
       0.0 0.0 0.0 0.0
000340 00 00 00 00 00 00 00 00 00 00 00 00 00 00 00 00
       0.0 0.0 0.0 0.0
000350 00 00 00 00 00 00 00 00 00 00 00 00 00 00 00 00
       0.0 0.0 0.0 0.0
000360 00 00 00 00 00 00 00 00 00 00 00 00 00 00 00 00
       0.0 0.0 0.0 0.0
000370 00 00 00 00 00 00 00 00 00 00 00 00 00 00 00 00
       0.0 0.0 0.0 0.0
000380 00 00 00 00 00 00 00 00 00 00 00 00 00 00 00 00
       0.0 0.0 0.0 0.0
000390 00 00 00 00 00 00 00 00 00 00 00 00 00 00 00 00
       0.0 0.0 0.0 0.0
0003a0 00 00 00 00 00 00 00 00 00 00 00 00 00 00 00 00
       0.0 0.0 0.0 0.0
0003b0 00 00 00 00 00 00 00 00 00 00 00 00 00 00 00 00
       0.0 0.0 0.0 0.0
0003c0 00 00 00 00 00 00 00 00 00 00 00 00 00 00 00 00
       0.0 0.0 0.0 0.0
0003d0 00 00 00 00 00 00 00 00 00 00 00 00 00 00 00 00
       0.0 0.0 0.0 0.0
0003e0 00 00 00 00 00 00 00 00 00 00 00 00 00 00 00 00
       0.0 0.0 0.0 0.0
0003f0 00 00 00 00 00 00 00 00 00 00 00 00 00 00 00 00
       0.0 0.0 0.0 0.0

exp_avg_sq f4 [20, 32]
000000 00 00 00 00 00 00 00 00 00 00 00 00 00 00 00 00
       0.0 0.0 0.0 0.0
000010 00 00 00 00 00 00 00 00 00 00 00 00 00 00 00 00
       0.0 0.0 0.0 0.0
000020 00 00 00 00 00 00 00 00 00 00 00 00 00 00 00 00
       0.0 0.0 0.0 0.0
000030 00 00 00 00 00 00 00 00 00 00 00 00 00 00 00 00
       0.0 0.0 0.0 0.0
000040 00 00 00 00 00 00 00 00 00 00 00 00 00 00 00 00
       0.0 0.0 0.0 0.0
000050 00 00 00 00 00 00 00 00 00 00 00 00 00 00 00 00
       0.0 0.0 0.0 0.0
000060 00 00 00 00 00 00 00 00 00 00 00 00 00 00 00 00
       0.0 0.0 0.0 0.0
000070 00 00 00 00 00 00 00 00 00 00 00 00 00 00 00 00
       0.0 0.0 0.0 0.0
000080 00 00 00 00 00 00 00 00 00 00 00 00 00 00 00 00
       0.0 0.0 0.0 0.0
000090 00 00 00 00 00 00 00 00 00 00 00 00 00 00 00 00
       0.0 0.0 0.0 0.0
0000a0 00 00 00 00 00 00 00 00 00 00 00 00 00 00 00 00
       0.0 0.0 0.0 0.0
0000b0 00 00 00 00 00 00 00 00 00 00 00 00 00 00 00 00
       0.0 0.0 0.0 0.0
0000c0 00 00 00 00 00 00 00 00 00 00 00 00 00 00 00 00
       0.0 0.0 0.0 0.0
0000d0 00 00 00 00 00 00 00 00 00 00 00 00 00 00 00 00
       0.0 0.0 0.0 0.0
0000e0 00 00 00 00 00 00 00 00 00 00 00 00 00 00 00 00
       0.0 0.0 0.0 0.0
0000f0 00 00 00 00 00 00 00 00 00 00 00 00 00 00 00 00
       0.0 0.0 0.0 0.0
000100 00 00 00 00 00 00 00 00 00 00 00 00 00 00 00 00
       0.0 0.0 0.0 0.0
000110 00 00 00 00 00 00 00 00 00 00 00 00 00 00 00 00
       0.0 0.0 0.0 0.0
000120 00 00 00 00 00 00 00 00 00 00 00 00 00 00 00 00
       0.0 0.0 0.0 0.0
000130 00 00 00 00 00 00 00 00 00 00 00 00 00 00 00 00
       0.0 0.0 0.0 0.0
000140 00 00 00 00 00 00 00 00 00 00 00 00 00 00 00 00
       0.0 0.0 0.0 0.0
000150 00 00 00 00 00 00 00 00 00 00 00 00 00 00 00 00
       0.0 0.0 0.0 0.0
000160 00 00 00 00 00 00 00 00 00 00 00 00 00 00 00 00
       0.0 0.0 0.0 0.0
000170 00 00 00 00 00 00 00 00 00 00 00 00 00 00 00 00
       0.0 0.0 0.0 0.0
000180 00 00 00 00 00 00 00 00 00 00 00 00 00 00 00 00
       0.0 0.0 0.0 0.0
000190 00 00 00 00 00 00 00 00 00 00 00 00 00 00 00 00
       0.0 0.0 0.0 0.0
0001a0 00 00 00 00 00 00 00 00 00 00 00 00 00 00 00 00
       0.0 0.0 0.0 0.0
0001b0 00 00 00 00 00 00 00 00 00 00 00 00 00 00 00 00
       0.0 0.0 0.0 0.0
0001c0 00 00 00 00 00 00 00 00 00 00 00 00 00 00 00 00
       0.0 0.0 0.0 0.0
0001d0 00 00 00 00 00 00 00 00 00 00 00 00 00 00 00 00
       0.0 0.0 0.0 0.0
0001e0 00 00 00 00 00 00 00 00 00 00 00 00 00 00 00 00
       0.0 0.0 0.0 0.0
0001f0 00 00 00 00 00 00 00 00 00 00 00 00 00 00 00 00
       0.0 0.0 0.0 0.0
000200 00 00 00 00 00 00 00 00 00 00 00 00 00 00 00 00
       0.0 0.0 0.0 0.0
000210 00 00 00 00 00 00 00 00 00 00 00 00 00 00 00 00
       0.0 0.0 0.0 0.0
000220 00 00 00 00 00 00 00 00 00 00 00 00 00 00 00 00
       0.0 0.0 0.0 0.0
000230 00 00 00 00 00 00 00 00 00 00 00 00 00 00 00 00
       0.0 0.0 0.0 0.0
000240 00 00 00 00 00 00 00 00 00 00 00 00 00 00 00 00
       0.0 0.0 0.0 0.0
000250 00 00 00 00 00 00 00 00 00 00 00 00 00 00 00 00
       0.0 0.0 0.0 0.0
000260 00 00 00 00 00 00 00 00 00 00 00 00 00 00 00 00
       0.0 0.0 0.0 0.0
000270 00 00 00 00 00 00 00 00 00 00 00 00 00 00 00 00
       0.0 0.0 0.0 0.0
000280 00 00 00 00 00 00 00 00 00 00 00 00 00 00 00 00
       0.0 0.0 0.0 0.0
000290 00 00 00 00 00 00 00 00 00 00 00 00 00 00 00 00
       0.0 0.0 0.0 0.0
0002a0 00 00 00 00 00 00 00 00 00 00 00 00 00 00 00 00
       0.0 0.0 0.0 0.0
0002b0 00 00 00 00 00 00 00 00 00 00 00 00 00 00 00 00
       0.0 0.0 0.0 0.0
0002c0 00 00 00 00 00 00 00 00 00 00 00 00 00 00 00 00
       0.0 0.0 0.0 0.0
0002d0 00 00 00 00 00 00 00 00 00 00 00 00 00 00 00 00
       0.0 0.0 0.0 0.0
0002e0 00 00 00 00 00 00 00 00 00 00 00 00 00 00 00 00
       0.0 0.0 0.0 0.0
0002f0 00 00 00 00 00 00 00 00 00 00 00 00 00 00 00 00
       0.0 0.0 0.0 0.0
000300 00 00 00 00 00 00 00 00 00 00 00 00 00 00 00 00
       0.0 0.0 0.0 0.0
000310 00 00 00 00 00 00 00 00 00 00 00 00 00 00 00 00
       0.0 0.0 0.0 0.0
000320 00 00 00 00 00 00 00 00 00 00 00 00 00 00 00 00
       0.0 0.0 0.0 0.0
000330 00 00 00 00 00 00 00 00 00 00 00 00 00 00 00 00
       0.0 0.0 0.0 0.0
000340 00 00 00 00 00 00 00 00 00 00 00 00 00 00 00 00
       0.0 0.0 0.0 0.0
000350 00 00 00 00 00 00 00 00 00 00 00 00 00 00 00 00
       0.0 0.0 0.0 0.0
000360 00 00 00 00 00 00 00 00 00 00 00 00 00 00 00 00
       0.0 0.0 0.0 0.0
000370 00 00 00 00 00 00 00 00 00 00 00 00 00 00 00 00
       0.0 0.0 0.0 0.0
000380 00 00 00 00 00 00 00 00 00 00 00 00 00 00 00 00
       0.0 0.0 0.0 0.0
000390 00 00 00 00 00 00 00 00 00 00 00 00 00 00 00 00
       0.0 0.0 0.0 0.0
0003a0 00 00 00 00 00 00 00 00 00 00 00 00 00 00 00 00
       0.0 0.0 0.0 0.0
0003b0 00 00 00 00 00 00 00 00 00 00 00 00 00 00 00 00
       0.0 0.0 0.0 0.0
0003c0 00 00 00 00 00 00 00 00 00 00 00 00 00 00 00 00
       0.0 0.0 0.0 0.0
0003d0 00 00 00 00 00 00 00 00 00 00 00 00 00 00 00 00
       0.0 0.0 0.0 0.0
0003e0 00 00 00 00 00 00 00 00 00 00 00 00 00 00 00 00
       0.0 0.0 0.0 0.0
0003f0 00 00 00 00 00 00 00 00 00 00 00 00 00 00 00 00
       0.0 0.0 0.0 0.0

exp_avg f4 [20, 5]
000000 e6 3a cd b7 d4 39 4c 36 11 24 42 38 d4 e2 26 b8
       -2.4465331e-05 3.043203e-06 4.6286794e-05 -3.9788734e-05
000010 ae db 1a 37 77 c2 03 36 e4 8d 80 b4 d2 c7 75 b6
       9.2302635e-06 1.9633715e-06 -2.3945097e-07 -3.6624156e-06
000020 df dd 53 36 0c 7c 46 b5 f2 48 d9 b5 63 90 4d 34
       3.1570596e-06 -7.394126e-07 -1.618899e-06 1.914464e-07
000030 c6 ce 45 36 37 be 2a b6 94 2a 24 35 52 aa b5 36
       2.9475646e-06 -2.5442694e-06 6.115672e-07 5.4140482e-06
000040 c7 a6 29 b5 48 e0 24 b7 e3 43 0f 37 3f 1d 08 b6
       -6.32001e-07 -9.827381e-06 8.53927e-06 -2.0282603e-06
000050 07 76 07 b7 5f 5b 87 35 06 66 80 37 86 a7 5c b7
       -8.074107e-06 1.0084876e-06 1.5306297e-05 -1.3152026e-05
000060 30 38 4c 36 5f d2 f1 b7 00 fc 70 36 2e f7 64 38
       3.0431074e-06 -2.88274e-05 3.590947e-06 5.458964e-05
000070 8b cb 44 b8 c7 7c 36 37 42 86 84 35 c8 42 01 b4
       -4.6919606e-05 1.0877097e-05 9.87384e-07 -1.2038356e-07
000080 9f 29 f7 b5 e1 0f d5 35 15 a2 c7 b4 98 98 64 b6
       -1.8415047e-06 1.5874358e-06 -3.718457e-07 -3.4063469e-06
000090 bd 4c d8 34 9f 1c d0 36 65 a3 b3 b6 1d b7 ac 35
       4.028897e-07 6.202215e-06 -5.3536373e-06 1.2868292e-06
0000a0 32 fc 21 37 fb 42 97 b5 45 02 93 b7 3c 7b 7f 37
       9.655067e-06 -1.1269871e-06 -1.7524822e-05 1.5227877e-05
0000b0 84 bc 72 b6 1c be 9c b6 8d c1 1c 35 8a a6 14 37
       -3.617054e-06 -4.671294e-06 5.839618e-07 8.860263e-06
0000c0 9d 6f ff b6 50 50 ec 35 cf 7c c0 b8 bd 0b 3f 37
       -7.6125857e-06 1.7606744e-06 -9.178521e-05 1.138722e-05
0000d0 99 c8 35 39 38 4d 1c b9 6d 37 11 38 b8 24 88 b7
       0.00017336234 -0.00014906086 3.4622313e-05 -1.6229562e-05
0000e0 99 e6 04 36 c4 08 fe 37 58 f9 da b7 84 18 cd 36
       1.9803758e-06 3.0283241e-05 -2.6103735e-05 6.11233e-06
0000f0 d9 3d ca 36 3f 4a 3f b5 cc 1d 38 b7 2d eb 1e 37
       6.027269e-06 -7.1261087e-07 -1.0974192e-05 9.47229e-06
000100 08 cc 18 b6 70 6d 0a 38 80 48 81 b6 c3 47 7b b8
       -2.2768527e-06 3.3003686e-05 -3.8529397e-06 -5.9909897e-05
000110 7a 57 5a 38 c2 6f 4f b7 e1 a0 21 38 9e 0a a1 b6
       5.205672e-05 -1.2364182e-05 3.853522e-05 -4.79941e-06
000120 e0 ec 98 b8 95 70 83 38 91 a1 73 b7 20 97 08 b8
       -7.292046e-05 6.267537e-05 -1.4521546e-05 -3.2565673e-05
000130 28 1a 88 36 c4 51 81 38 27 4d 5e b8 90 26 4e 37
       4.056161e-06 6.1664294e-05 -5.300078e-05 1.2287535e-05
000140 bc cf 22 36 30 d7 9e b4 94 d8 97 b6 f2 e4 82 36
       2.4260798e-06 -2.9586363e-07 -4.5253637e-06 3.9009547e-06
000150 a0 42 75 b5 45 59 d3 b6 15 1f 48 35 19 6c 40 37
       -9.1366564e-07 -6.2986824e-06 7.4551036e-07 1.146926e-05
000160 1b 1b 26 b7 5a b2 1f 36 2d 02 c0 36 01 4b 33 b5
       -9.900682e-06 2.379666e-06 5.722299e-06 -6.679184e-07
000170 d6 40 2e b7 57 6a 17 37 f1 dc 0f b6 df 3e 9e b6
       -1.0386304e-05 9.0250605e-06 -2.1437265e-06 -4.716086e-06
000180 b3 1b 1e 35 4d fc 15 37 99 e0 00 b7 6b 91 ee 35
       5.8899894e-07 8.939835e-06 -7.681688e-06 1.7774704e-06

exp_avg_sq f4 [20, 5]
000000 39 c6 36 32 2a 2c 88 2f 27 9c 0c 33 55 22 cf 32
       1.0638865e-08 2.4769636e-10 3.273831e-08 2.4113584e-08
000010 4e 3e f7 30 ac 89 01 30 0a 2c 10 2f 85 df 5c 30
       1.7989323e-09 4.712557e-10 1.311237e-10 8.0353174e-10
000020 96 22 6b 2f b5 6d f1 2f 1d 53 c9 30 7d 29 73 2e
       2.1385413e-10 4.3915596e-10 1.4648297e-09 5.5288652e-11
000030 c4 66 a2 31 a6 92 58 31 09 a0 b8 2f 67 ea ea 31
       4.7265036e-09 3.1515497e-09 3.3583117e-10 6.836945e-09
000040 a6 af d0 2e 43 e5 b5 32 4c db 86 32 20 ec 85 30
       9.489946e-11 2.117543e-08 1.5699378e-08 9.744134e-10
000050 c1 58 ae 31 12 e2 d1 2f 13 d8 6b 32 c5 49 24 32
       5.0741567e-09 3.817751e-10 1.372793e-08 9.56283e-09
000060 94 5e de 30 25 fc 87 32 4a 8c bc 2f 3b 6c 51 33
       1.6179507e-09 1.583073e-08 3.4296682e-10 4.876004e-08
000070 2b dd 1a 33 43 40 32 31 d8 fc 7b 2f b7 dc 99 2e
       3.605707e-08 2.5938938e-09 2.2918145e-10 6.996841e-11
000080 10 10 bb 2f a9 d8 83 2e 25 b8 7d 2f 50 83 da 31
       3.4026515e-10 5.995677e-11 2.3075637e-10 6.3595635e-09
000090 b0 39 4c 2f dd 46 b0 32 76 08 72 32 4f c9 ae 30
       1.8574187e-10 2.0521322e-08 1.4088178e-08 1.2717382e-09
0000a0 c8 a7 bd 32 c9 0e a3 2f 84 4b 92 33 55 31 5a 33
       2.2078794e-08 2.9660033e-10 6.812391e-08 5.0801948e-08
0000b0 df bb 54 31 77 a9 fa 30 2e bb 1f 2f 09 21 a7 31
       3.0956853e-09 1.8238059e-09 1.4527465e-10 4.8640953e-09
0000c0 aa 16 68 31 37 ef 25 30 4d 07 15 34 20 cd 93 31
       3.3773326e-09 6.0366595e-10 1.3879362e-07 4.301583e-09
0000d0 2d 1d e5 34 1f a4 a4 34 ae 75 e8 32 24 ec 58 32
       4.2675802e-07 3.0666794e-07 2.706187e-08 1.2626547e-08
0000e0 97 10 31 31 95 35 fb 32 90 f8 53 32 09 b8 1d 32
       2.576632e-09 2.9244612e-08 1.2338333e-08 9.1804475e-09
0000f0 e1 5a da 32 8c 4e 2a 31 be 80 a7 33 6c 47 3b 33
       2.5419867e-08 2.4782905e-09 7.7999616e-08 4.3604288e-08
000100 4d 2b 38 32 1c 35 8b 34 eb 76 9c 31 55 ea 58 35
       1.0720055e-08 2.592941e-07 4.553717e-09 8.080727e-07
000110 73 bb 1d 35 2c 48 2e 33 7a e2 bf 33 55 46 51 31
       5.875983e-07 4.0578172e-08 8.9353264e-08 3.0453482e-09
000120 99 4c 8f 34 1f 35 51 34 50 bb 99 32 40 55 ab 32
       2.6691558e-07 1.9483967e-07 1.7896724e-08 1.9945787e-08
000130 c5 0f fc 2f 3c a4 83 33 b0 4e 42 33 59 14 66 31
       4.5849738e-10 6.130037e-08 4.524071e-08 3.3480971e-09
000140 53 8c 49 30 1f 04 61 2f d4 d9 a8 30 34 de b3 2f
       7.3322787e-10 2.0465095e-10 1.2285519e-09 3.2717795e-10
000150 43 f4 3b 30 30 46 be 32 9f f2 d2 2f 39 02 97 33
       6.837732e-10 2.2150829e-08 3.837117e-10 7.03189e-08
000160 fc 9c 5b 33 a0 34 6c 31 13 1c 05 32 c5 a6 e5 2e
       5.1132687e-08 3.4372434e-09 7.748002e-09 1.04433386e-10
000170 de 61 cd 32 98 23 99 32 7e 88 95 30 b7 e7 f6 30
       2.3909646e-08 1.782773e-08 1.087997e-09 1.7964713e-09
000180 46 78 2b 2f 08 08 a2 31 fe 62 5e 31 4d d5 2d 30
       1.5595089e-10 4.7157336e-09 3.2361522e-09 6.324015e-10

exp_avg f4 [20]
000000 32 5e c2 b8 50 16 f6 36 b4 9f c6 b6 ab dc a4 37
       -9.268186e-05 7.333969e-06 -5.9194517e-06 1.965308e-05
000010 63 8c 00 b8 0f 28 e5 b8 25 69 77 36 4d f8 50 b7
       -3.0648323e-05 -0.000109270324 3.686707e-06 -1.2455578e-05
000020 53 0c 13 38 a2 dc 94 b7 b5 00 b6 b9 2d 57 7e b8
       3.505901e-05 -1.7745715e-05 -0.00034714272 -6.0639508e-05
000030 a3 e1 b8 37 b7 50 fb 38 7d 1c 19 39 b8 76 01 b9
       2.203958e-05 0.00011983647 0.0001460183 -0.00012346625
000040 60 f9 17 37 3f 2e c1 b7 62 58 ae 37 94 2f 96 b7
       9.0583635e-06 -2.3028928e-05 2.0783573e-05 -1.7903549e-05

exp_avg_sq f4 [20]
000000 e4 0a 11 34 a9 cd 4d 32 f9 50 be 32 63 83 b1 33
       1.350814e-07 1.1979332e-08 2.2155733e-08 8.266104e-08
000010 7c 39 9e 33 2d e2 55 34 5e aa cd 31 7f b9 c3 33
       7.367905e-08 1.9919453e-07 5.9856538e-09 9.114137e-08
000020 f9 ee 8d 34 72 e6 e4 32 73 90 f8 35 2d b0 9f 34
       2.6437172e-07 2.6647488e-08 1.851948e-06 2.9744243e-07
000030 ec d7 04 35 3b 97 5a 36 15 0c 9c 35 86 70 87 34
       4.948804e-07 3.257256e-06 1.1626422e-06 2.522758e-07
000040 48 fb 9e 32 f2 e5 98 34 de 60 c7 33 9d 6b e6 32
       1.850789e-08 2.8479514e-07 9.28428e-08 2.682446e-08

exp_avg f4 [20]
000000 32 5e c2 b8 50 16 f6 36 b4 9f c6 b6 ab dc a4 37
       -9.268186e-05 7.333969e-06 -5.9194517e-06 1.965308e-05
000010 63 8c 00 b8 0f 28 e5 b8 25 69 77 36 4d f8 50 b7
       -3.0648323e-05 -0.000109270324 3.686707e-06 -1.2455578e-05
000020 53 0c 13 38 a2 dc 94 b7 b5 00 b6 b9 2d 57 7e b8
       3.505901e-05 -1.7745715e-05 -0.00034714272 -6.0639508e-05
000030 a3 e1 b8 37 b7 50 fb 38 7d 1c 19 39 b8 76 01 b9
       2.203958e-05 0.00011983647 0.0001460183 -0.00012346625
000040 60 f9 17 37 3f 2e c1 b7 62 58 ae 37 94 2f 96 b7
       9.0583635e-06 -2.3028928e-05 2.0783573e-05 -1.7903549e-05

exp_avg_sq f4 [20]
000000 e4 0a 11 34 a9 cd 4d 32 f9 50 be 32 63 83 b1 33
       1.350814e-07 1.1979332e-08 2.2155733e-08 8.266104e-08
000010 7c 39 9e 33 2d e2 55 34 5e aa cd 31 7f b9 c3 33
       7.367905e-08 1.9919453e-07 5.9856538e-09 9.114137e-08
000020 f9 ee 8d 34 72 e6 e4 32 73 90 f8 35 2d b0 9f 34
       2.6437172e-07 2.6647488e-08 1.851948e-06 2.9744243e-07
000030 ec d7 04 35 3b 97 5a 36 15 0c 9c 35 86 70 87 34
       4.948804e-07 3.257256e-06 1.1626422e-06 2.522758e-07
000040 48 fb 9e 32 f2 e5 98 34 de 60 c7 33 9d 6b e6 32
       1.850789e-08 2.8479514e-07 9.28428e-08 2.682446e-08

exp_avg f4 [4, 5]
000000 4c b9 20 b9 ef 9c a1 37 8f c4 98 39 16 59 83 b9
       -0.00015327818 1.9265774e-05 0.00029138147 -0.0002505264
000010 9f 88 72 38 bf a9 17 b9 18 be 97 37 94 cb 8f 39
       5.7824534e-05 -0.00014463718 1.8089122e-05 0.00027426763
000020 84 c6 76 b9 82 86 65 38 20 65 87 39 7d 66 ff b7
       -0.00023534341 5.4723125e-05 0.0002582455 -3.0446094e-05
000030 7e 79 f7 b9 04 be d5 39 bd d4 cb b8 d1 32 dc 39
       -0.0004720203 0.000407681 -9.71942e-05 0.0004199953
000040 0a 52 54 b8 c4 fb 4b ba 47 f9 2f 3a 13 ba 25 b9
       -5.0621144e-05 -0.00077813515 0.00067128654 -0.00015804944

exp_avg_sq f4 [4, 5]
000000 ee 5a fa 35 78 6e 2f 33 73 2e c1 36 5e 28 8e 36
       1.8652916e-06 4.0845833e-08 5.7572556e-06 4.236629e-06
000010 fa e1 a5 34 13 44 f7 35 e7 1e a5 34 d6 4f aa 36
       3.0898065e-07 1.8422746e-06 3.075613e-07 5.075689e-06
000020 47 d0 18 36 84 a3 9c 35 0f e2 64 36 6f e4 bf 34
       2.2770998e-06 1.1670495e-06 3.410623e-06 3.574273e-07
000030 17 92 2a 37 ad fc bf 36 71 ed c8 35 dc 2a b5 35
       1.0166804e-05 5.721659e-06 1.4970266e-06 1.3498025e-06
000040 c2 79 dc 32 92 f0 8d 36 15 1b 4e 36 7c 08 69 34
       2.566674e-08 4.2301335e-06 3.0712156e-06 2.1702903e-07

exp_avg f4 [4]
000000 4d fe 18 ba 02 10 10 ba 97 ad 77 3a c1 23 cc 3a
       -0.00058362336 -0.00054955494 0.0009448169 0.001557462

exp_avg_sq f4 [4]
000000 2f 2c c6 37 8c ac 35 38 4b f5 8a 38 3d 18 91 37
       2.3624014e-05 4.331446e-05 6.626042e-05 1.7296634e-05

exp_avg f4 [4, 5]
000000 cd a8 c4 b8 2f 9d 48 37 99 c8 3c 39 fb 33 22 b9
       -9.37745e-05 1.1957526e-05 0.00018003806 -0.00015468888
000010 08 7e 14 38 5d 03 3b b8 96 bd d7 36 c1 ad c2 38
       3.5403325e-05 -4.4587407e-05 6.42957e-06 9.283005e-05
000020 5c 26 a5 b8 e1 06 8f 37 86 7e ce b8 36 43 45 37
       -7.874958e-05 1.7050132e-05 -9.846412e-05 1.1757764e-05
000030 8c 08 3d 39 ec d1 23 b9 21 0c 1b 38 03 32 d7 b8
       0.00018027629 -0.00015623093 3.6966176e-05 -0.00010261314
000040 4d 0b 5b 37 cf 40 4e 39 b2 b3 30 b9 b7 bb 22 38
       1.3056048e-05 0.00019669834 -0.0001685161 3.8798633e-05

exp_avg_sq f4 [4, 5]
000000 eb 52 a5 35 83 2d 98 32 a8 35 81 36 58 66 40 36
       1.231759e-06 1.7715825e-08 3.850746e-06 2.8669801e-06
000010 11 fb 3a 34 02 37 22 35 cc 4f 84 32 15 da ff 35
       1.7413937e-07 6.042975e-07 1.540311e-08 1.9062451e-06
000020 6b 96 b6 35 04 d9 ea 33 d2 4b 80 35 2e ed 80 32
       1.3603834e-06 1.0935949e-07 9.55881e-07 1.5009018e-08
000030 8f 3d 4a 36 86 b7 15 36 12 92 16 34 a1 68 f1 35
       3.0136177e-06 2.2309555e-06 1.4022979e-07 1.798635e-06
000040 70 bf 08 34 33 2c bb 36 1b 96 63 36 bc 05 23 35
       1.2735632e-07 5.5781798e-06 3.3913009e-06 6.0730576e-07

exp_avg f4 [4]
000000 2d 1b bd b9 98 51 43 b9 7f 7b bd b9 d5 a2 ce b9
       -0.00036069137 -0.00018627045 -0.000361409 -0.000394127

exp_avg_sq f4 [4]
000000 ea db 7c 37 6a 9f 07 37 b3 c4 48 37 6e 64 03 38
       1.5071573e-05 8.0837435e-06 1.1966727e-05 3.1326366e-05

exp_avg f4 [20, 4]
000000 4d 99 53 ba fa 1c fb b9 6f 4a 22 ba 85 2c 5d 3a
       -0.0008071855 -0.0004789604 -0.0006190901 0.0008437115
000010 5c c3 81 ba f4 a1 b8 ba 9a 9b 0f ba ca 4c be 3a
       -0.000990014 -0.0014086352 -0.00054782035 0.0014518735
000020 93 e7 15 b9 30 6e 0e 38 36 08 bf b9 e4 25 65 39
       -0.00014296015 3.395806e-05 -0.00036436477 0.00021853257
000030 14 69 83 b8 ce 69 9b b9 24 67 e6 b9 16 38 8b b9
       -6.266139e-05 -0.00029642734 -0.00043945864 -0.00026553933
000040 e7 8a 65 b8 8f b9 5f b9 9d b4 48 39 e0 e8 a7 39
       -5.4727218e-05 -0.00021336063 0.0001914077 0.00032026228
000050 0a c2 7e ba 1d cf 29 ba 90 7b 16 ba ed 26 9e 3a
       -0.0009718245 -0.00064777007 -0.0005740458 0.0012066044
000060 73 a7 e8 ba a4 58 14 bb 9c 21 a5 ba 11 f6 06 3b
       -0.0017750099 -0.0022635842 -0.0012598517 0.0020593444
000070 64 87 d5 b9 20 aa 9f b9 14 4e 33 ba 66 2d 4b 3a
       -0.000407274 -0.00030453596 -0.00068399427 0.00077506003
000080 b8 ea b2 b9 a7 19 01 ba 20 61 7d ba 61 09 5a b9
       -0.00034125685 -0.0004924782 -0.0009665657 -0.00020793594
000090 fd cd 22 b7 33 0d c2 b8 de 35 25 39 98 a0 f8 38
       -9.703913e-06 -9.2530994e-05 0.00015755693 0.000118554744
0000a0 47 68 f7 39 f3 e5 68 39 c7 5f 6a 39 04 64 2a ba
       0.00047189204 0.00022210907 0.00022351659 -0.0006499889
0000b0 6a be c3 3b 7d e3 1a 3c 07 90 c1 3b 42 5e aa bb
       0.005973627 0.0094536515 0.005907062 -0.0051992247
0000c0 98 9c 8f 38 bb 53 27 b9 6c 34 a5 39 eb 0c b7 b8
       6.847939e-05 -0.00015957553 0.0003151031 -8.728526e-05
0000d0 29 6c 03 b9 65 e2 7a b9 74 6d 7c b9 2d 35 bc b7
       -0.00012533426 -0.00023926196 -0.00024073367 -2.2436108e-05
0000e0 b9 7b 07 3a a5 cc aa 3a b3 d7 4a b9 12 a4 6a ba
       0.00051682774 0.001303096 -0.00019344575 -0.000895084
0000f0 da 27 ea ba 50 33 bd ba ff e8 b4 ba 10 85 ea 3a
       -0.001786466 -0.0014434848 -0.0013802348 0.0017892439
000100 d1 67 3c bb 32 a8 3a bb 0e e8 96 ba fa eb 65 3b
       -0.0028748403 -0.00284816 -0.001151325 0.003508328
000110 8a 1b 43 bb 36 41 35 bb 65 50 4e bb 2f 64 13 3b
       -0.0029771053 -0.0027657277 -0.0031481024 0.0022490134
000120 a9 38 b1 ba 9b 42 5a ba 34 d5 70 ba c7 a3 39 3a
       -0.0013520914 -0.0008325965 -0.0009187043 0.00070815947
000130 07 40 3f b8 1d d2 90 b9 d0 1f 78 39 d1 6c a0 39
       -4.559758e-05 -0.00027622367 0.00023662974 0.00030598653

exp_avg_sq f4 [20, 4]
000000 f2 4f b1 37 d7 df 8f 37 b2 7b a2 37 36 d1 70 37
       2.1137272e-05 1.7151162e-05 1.9369505e-05 1.43538255e-05
000010 be 2d cc 37 7e 6b ef 37 5e 0a ef 37 03 07 e8 37
       2.4339995e-05 2.8541075e-05 2.8495848e-05 2.765982e-05
000020 9e a3 98 37 75 8c 8b 37 48 14 2a 38 24 f1 c6 37
       1.8196002e-05 1.6635497e-05 4.0550047e-05 2.371573e-05
000030 6f 6b ec 36 b1 a8 0e 37 22 7a d6 36 93 78 0d 37
       7.045855e-06 8.503136e-06 6.391915e-06 8.432328e-06
000040 42 b0 14 35 21 85 0a 35 23 6e cf 34 2e 17 fd 35
       5.5390785e-07 5.1602734e-07 3.863689e-07 1.8856715e-06
000050 26 f0 b2 37 01 78 b1 37 3d 07 e3 37 c7 78 e0 37
       2.1331081e-05 2.1155925e-05 2.706388e-05 2.6759122e-05
000060 c7 a6 56 38 fa 0f a8 38 81 71 95 38 e6 83 96 38
       5.11769e-05 8.01384e-05 7.1260154e-05 7.1771254e-05
000070 5d ae 2e 38 ee 76 29 38 27 48 a3 38 39 5a 6e 38
       4.164722e-05 4.04035e-05 7.785885e-05 5.682765e-05
000080 fe 8d 75 37 db 27 8c 37 05 fa 83 37 36 98 90 37
       1.4636198e-05 1.670786e-05 1.5732841e-05 1.7237016e-05
000090 d5 b9 cb 34 09 0c 9a 34 f3 ac 89 34 0d 96 8b 34
       3.7946907e-07 2.8693492e-07 2.5644076e-07 2.5999944e-07
0000a0 ac 0d ad 37 dd b4 70 37 51 23 c0 37 0d 4e b9 37
       2.0629574e-05 1.4347225e-05 2.2904629e-05 2.2090064e-05
0000b0 f0 72 49 39 95 57 e5 39 6f eb 4a 39 b5 42 8d 39
       0.00019211671 0.00043743537 0.00019351927 0.00026943316
0000c0 65 d6 84 39 fa 7f c7 38 f1 86 dc 38 27 b8 0e 3a
       0.00025336738 9.512897e-05 0.00010515552 0.0005444311
0000d0 62 90 e8 37 69 85 8f 38 3e c7 32 38 58 c4 94 37
       2.7723789e-05 6.843621e-05 4.2624066e-05 1.7734405e-05
0000e0 3f 05 b4 37 9c ab 86 37 bc 40 8f 37 b9 98 5a 37
       2.1460115e-05 1.6053957e-05 1.7077073e-05 1.3029371e-05
0000f0 20 1f b4 38 c6 cd c4 38 14 83 db 38 22 d2 c8 38
       8.588866e-05 9.3843366e-05 0.00010467149 9.5758835e-05
000100 72 70 87 39 e9 fd 80 39 d7 34 90 39 31 88 81 39
       0.00025832985 0.0002460324 0.0002750519 0.00024706268
000110 d4 dd 90 39 27 0c 95 39 2c 7a 97 39 1c 5f 8d 39
       0.00027631095 0.0002842855 0.0002889199 0.00026964478
000120 e5 59 45 38 87 56 43 38 3a 4b 5d 38 54 e1 66 38
       4.705218e-05 4.6572208e-05 5.2760566e-05 5.5046126e-05
000130 f1 96 9e 35 1d a6 5a 35 93 12 40 35 17 b1 7d 35
       1.1815847e-06 8.1453055e-07 7.15526e-07 9.4507544e-07
